Reinforcement_Learning/DeepRL/model/CartPole-v1.pth (torch, 21168 bytes, 6 tensors)

fc.0.weight f4 [64, 4]
0	0xbf0be28c	-0.5464256
1	0x3ef46c7b	0.47739014
2	0x3f275462	0.6536313
3	0x3f8bfea3	1.0937084
4	0x3f2844d3	0.6573002
5	0x3f17fc1b	0.5936906
6	0x3e909ee7	0.28246233
7	0x3f4be01c	0.7963884
8	0xbe4904f8	-0.19630802
9	0x3c28a284	0.010292653
10	0xbe1d8622	-0.15383199
11	0xbe06f86c	-0.13180703
12	0xbdc7819f	-0.0974152
13	0xbc06bb10	-0.00822331
14	0xbfaa7010	-1.3315449
15	0xbda18afc	-0.07887837
16	0xbf0f163e	-0.55893314
17	0xbe82a8e3	-0.25519475
18	0x3b5e65f2	0.0033935276
19	0x3f3aeb5f	0.730154
20	0x3ed62a44	0.4182912
21	0xbd6748a7	-0.05646577
22	0xbf037bc7	-0.51360744
23	0xbeb521f6	-0.35377473
24	0x3f80b05b	1.005382
25	0x3c21f87d	0.009885904
26	0x3f1be850	0.60901356
27	0x3f852155	1.0400797
28	0xbeba3cdd	-0.3637456
29	0xbf4e28d2	-0.80531037
30	0xbfb3a81c	-1.4035678
31	0xbefaba48	-0.48970246
32	0x3ea08599	0.31351927
33	0x3f2771b9	0.654079
34	0xbea2b371	-0.31777528
35	0x3ee1de12	0.4411474
36	0x3f03c4a7	0.5147194
37	0x3da3b74a	0.07993944
38	0xbf3ceba6	-0.7379707
39	0xbf837a14	-1.027163
40	0x3f0b2f55	0.543691
41	0x3f04f50e	0.51936424
42	0x3f224664	0.6338866
43	0xbe4b903a	-0.19879237
44	0x3f98fbf0	1.1951885
45	0xbeed117d	-0.46302405
46	0x3f8584f0	1.0431194
47	0x3f133eb9	0.5751758
48	0x3f637d73	0.88863295
49	0xbf6a8184	-0.91603875
50	0x3d8ab524	0.06772831
51	0x3dab5e61	0.08367611
52	0x3fd7f248	1.6870813
53	0xbf62b8d8	-0.885633
54	0xbfa8213e	-1.3135145
55	0x3e707770	0.23483062
56	0x3e83522d	0.25648633
57	0x3bd97f02	0.006637455
58	0x3cb959c6	0.022625815
59	0x3e92a3ee	0.28640693
60	0x3f824fdf	1.0180625
61	0x401c2d24	2.4402552
62	0xbf821c39	-1.0164863
63	0xbe0531f5	-0.13007338
64	0x3e29a8f3	0.16568355
65	0xbc650347	-0.013977832
66	0x3f6afe75	0.9179452
67	0x3eb38467	0.35061952
68	0xbf1f47ea	-0.6221911
69	0x3fb2a76a	1.3957341
70	0x3e7e3305	0.2482415
71	0x3f255cfd	0.64595014
72	0x3fa2f827	1.273198
73	0xbf074b02	-0.5284883
74	0xbfb46bf9	-1.4095451
75	0x3f1d6769	0.61485916
76	0xbf696ad5	-0.9117864
77	0xbd7530bc	-0.05986093
78	0x3e914b93	0.2837797
79	0x3f9f4320	1.244236
80	0x3ed5b17a	0.41736966
81	0xbf35499f	-0.7081546
82	0x3ec3105c	0.3809842
83	0x3f139821	0.57654005
84	0x3e7a684e	0.24453852
85	0xbf00bd65	-0.50288993
86	0xbf34717e	-0.70485675
87	0xbe279ffe	-0.16369626
88	0x3db0580d	0.08610544
89	0x3ecdb3cf	0.40176246
90	0xbc7535b2	-0.014966415
91	0xbed7d9f1	-0.42158464
92	0xbf777322	-0.96660054
93	0x3eeadfb9	0.45873812
94	0xbf895b59	-1.0731002
95	0x3ea8760a	0.32902557
96	0xbdf401f1	-0.11914433
97	0xbf90e216	-1.1318996
98	0xbf182afe	-0.594406
99	0xbe352332	-0.17689207
100	0xbf77b219	-0.9675613
101	0xbebff89d	-0.37494364
102	0x3e9861e9	0.297622
103	0xbf99e152	-1.2021887
104	0xbf8a5448	-1.0806971
105	0xbef963a7	-0.4870884
106	0x3d09ecf8	0.033673257
107	0xbe0a2d86	-0.13493928
108	0xbfcf2c98	-1.6185484
109	0xbe0b691b	-0.13614313
110	0xbdf6f44a	-0.12058313
111	0x3e04381e	0.12912032
112	0x3ebff0db	0.37488446
113	0xbd3fee3d	-0.04685806
114	0xbf271917	-0.6527266
115	0xbf376278	-0.71634626
116	0xbee25e6e	-0.4421267
117	0x3f9d5b7b	1.2293543
118	0x3ec726fc	0.3889693
119	0x400010fa	2.0010362
120	0x3f1b6d70	0.60713863
121	0x3f143f72	0.5790931
122	0xbf604814	-0.8760998
123	0x3ec3bd51	0.38230374
124	0x3f3a8761	0.7286282
125	0xbec346a5	-0.38139835
126	0xbf8136db	-1.0094866
127	0x3edd0c46	0.43173426
128	0x3d383f4b	0.044982236
129	0xbf075b95	-0.5287412
130	0xbed0bbd0	-0.4076829
131	0xbf251274	-0.6448128
132	0xbdfb0f3d	-0.12258766
133	0x3ee1fd1e	0.44138426
134	0x3f56f355	0.83965045
135	0xbec089be	-0.3760509
136	0x3ede5244	0.4342214
137	0x3caeedd1	0.021353634
138	0x3d6f3ac4	0.058405653
139	0x3f13b02d	0.576907
140	0x4001521f	2.0206373
141	0xbe40d7b1	-0.1883228
142	0x3f550e01	0.83224493
143	0xbdfcf027	-0.12350493
144	0x3f1cb75c	0.61217284
145	0xbe93807f	-0.28808972
146	0x3f4365eb	0.7632739
147	0xbf1b92dc	-0.60770965
148	0x3f01b8bb	0.506725
149	0xbeee2ee9	-0.46520165
150	0x3e91d2af	0.2848105
151	0xbf92ffaf	-1.1484278
152	0x3fccdb8d	1.6004502
153	0x3e3cdce7	0.18443643
154	0xbf875e5c	-1.0575671
155	0x3e97ec19	0.29672316
156	0xbf1ff758	-0.6248679
157	0xbf88ce03	-1.068787
158	0xbc500994	-0.012697596
159	0xbf26413d	-0.64943296
160	0xbf4a6212	-0.79055893
161	0x3dc6e818	0.09712237
162	0x3f38e90f	0.7223062
163	0x3edf703f	0.43640324
164	0xbebc20df	-0.3674383
165	0xbeff8bf6	-0.4991147
166	0xbed529a0	-0.4163332
167	0xbf968837	-1.176032
168	0x3f8992bf	1.0747908
169	0x3f22c93a	0.635883
170	0x3e3d3a25	0.18479212
171	0xbda960d9	-0.08270425
172	0x3ee7785c	0.45209014
173	0xbed9c905	-0.42536178
174	0xbea800c1	-0.32813075
175	0x3f86c726	1.0529525
176	0xbf630dec	-0.8869312
177	0x3ee3f0a9	0.44519547
178	0x3ec0d68f	0.37663695
179	0xbf50874e	-0.8145646
180	0x3f4ab4dd	0.79182225
181	0xbf2fae8d	-0.6862572
182	0xbd20122e	-0.039079838
183	0xbfa1d70b	-1.2643751
184	0x3e997154	0.29969275
185	0x3f1f36bf	0.6219291
186	0xbecc0494	-0.39847243
187	0xbf192ccf	-0.59834
188	0xbf4bf941	-0.79677206
189	0x3fa71613	1.3053612
190	0xbf748d81	-0.9552842
191	0x3e50b032	0.20379713
192	0x3c3fa5ac	0.011697214
193	0xbe86994b	-0.26288828
194	0x3dcde627	0.10053664
195	0xbeedc7fa	-0.46441633
196	0xbf84b189	-1.036668
197	0x3e86abc2	0.26302916
198	0xbf0787a7	-0.52941364
199	0x3d6440bf	0.05572581
200	0x3e8002fb	0.25002274
201	0xbf522c77	-0.820991
202	0xbe6f83a4	-0.2339006
203	0x3f9a30a2	1.2046092
204	0x3db0e9bf	0.086383335
205	0xbdb09cae	-0.08623634
206	0xbed79bc9	-0.42111042
207	0xbcc527f6	-0.024066906
208	0xbfb8ed33	-1.4447387
209	0xbe894a95	-0.26814714
210	0xbb415331	-0.0029499049
211	0xbf4777c4	-0.7791712
212	0x3e356dcb	0.17717664
213	0x3f017b70	0.50578976
214	0xbea22a64	-0.31672966
215	0x3f9c8063	1.222668
216	0xbe9d1f48	-0.30687928
217	0xbf54747a	-0.8299023
218	0xbf929d8a	-1.1454327
219	0xbebc24b0	-0.3674674
220	0xbe4149ae	-0.18875763
221	0xbb859fd3	-0.0040778904
222	0xbf25795d	-0.6463831
223	0xbe85a629	-0.26103333
224	0xbdb787e9	-0.0896147
225	0xbf2dbb38	-0.678638
226	0xbf597dc8	-0.8495755
227	0x3d818e63	0.06325986
228	0x3f9e5427	1.2369431
229	0x3e690527	0.22755872
230	0xbf370eb2	-0.715068
231	0xbf6465c7	-0.892178
232	0x3f689b04	0.90861535
233	0x3fbca7ba	1.4738686
234	0x3efbeb3c	0.49202907
235	0x3f54d8b0	0.8314314
236	0xbd86c31c	-0.06580183
237	0x3fb0b251	1.3804418
238	0xbf760161	-0.96095854
239	0x3ed1b872	0.40961033
240	0x3da4cb30	0.080465674
241	0xbdecc0b5	-0.115601934
242	0x3fceb206	1.6148078
243	0x3e4bf2b9	0.1991681
244	0xbfb1d76b	-1.3893865
245	0xbe20ffca	-0.15722576
246	0xbe97d13b	-0.29651818
247	0xbf788555	-0.9707845
248	0xbe4bce69	-0.19902958
249	0x3f704e10	0.93869114
250	0x3ef2cde5	0.4742271
251	0xbf976686	-1.1828163
252	0xbf82715e	-1.0190847
253	0xbdc26f39	-0.0949387
254	0x3f235120	0.6379566
255	0x3ec81961	0.39081863

fc.0.bias f4 [64]
0	0xbe631b37	-0.2217835
1	0xbe48dc19	-0.1961521
2	0x3ee6d5f8	0.4508512
3	0x3ef5fc43	0.48044023
4	0x3e51d22c	0.2049033
5	0xbdb5116d	-0.08841214
6	0x3e182596	0.14858088
7	0x3f33aba3	0.7018377
8	0x3e93697b	0.28791413
9	0x3e9788bc	0.29596508
10	0x3e2fffe4	0.17187458
11	0xbcc19d20	-0.023634493
12	0xbf2b3f19	-0.66893154
13	0x3ee88615	0.45414796
14	0x3e8e2e65	0.2776977
15	0xbe30532f	-0.17219232
16	0xbe4748dc	-0.19461387
17	0x3e77799c	0.24167484
18	0x3e760b48	0.24027741
19	0xbf0eb5a2	-0.557459
20	0xbe91b14f	-0.28455588
21	0x3ee7c22c	0.4526533
22	0x3e0a81ee	0.13526127
23	0x3eb2d651	0.34929135
24	0x3e92d287	0.28676245
25	0x3e8ce2d5	0.2751681
26	0x3e890324	0.2676021
27	0xbe03b07d	-0.12860294
28	0x3da67e82	0.08129598
29	0xbdce23ea	-0.10065444
30	0x3e9018e3	0.28143987
31	0x3ed67019	0.418824
32	0xbdeb0166	-0.11474876
33	0x3e58b630	0.21163249
34	0x3d16f0a2	0.03685058
35	0x3ebe2d27	0.37143824
36	0x3df211ce	0.11819802
37	0x3e845c01	0.25851443
38	0x3e9073dc	0.28213394
39	0x3ee20fc6	0.4415266
40	0x3dfd07ea	0.12355025
41	0x3e77226d	0.24134226
42	0xbc1715ca	-0.0092215035
43	0xbea2f849	-0.31830052
44	0x3e91b0cc	0.28455198
45	0x3d46c4e9	0.048527632
46	0x3e45a65a	0.1930174
47	0x3e6f18d7	0.2334932
48	0x3d8c6b1d	0.06856368
49	0x3edf5819	0.436219
50	0x3e5f020c	0.21778125
51	0x3eced69c	0.4039811
52	0x3ea093d6	0.3136279
53	0xbea23a93	-0.31685314
54	0x3f08bf72	0.5341712
55	0x3c411bb5	0.011786391
56	0x3e8f1d82	0.279522
57	0xbe3feb35	-0.18742068
58	0x3eab476f	0.33452937
59	0xbe591e4a	-0.2120296
60	0xbe4e10c7	-0.20123588
61	0x3e790401	0.24317934
62	0xbe175766	-0.14779434
63	0xbdc5c920	-0.09657502

fc.2.weight f4 [64, 64]
0	0xbe71c211	-0.23609187
1	0xbe0060d1	-0.12536933
2	0x3f2aafdc	0.6667459
3	0x3ebe4253	0.37159976
4	0x3cd95efd	0.026534552
5	0xbda9ef65	-0.08297614
6	0x3cbf532f	0.023355095
7	0x3f3b1c3e	0.7308997
8	0x3e9abab3	0.30220565
9	0x3d61ed2b	0.05515782
10	0x3e94b3f1	0.29043534
11	0xbdfdbb59	-0.12389249
12	0xbce8b113	-0.028404748
13	0x3e7048cf	0.23465274
14	0xbe2c6d8e	-0.16838667
15	0xbe15a157	-0.14612328
16	0x3b098527	0.0020983906
17	0xbf043894	-0.5164883
18	0x3e864958	0.26227832
19	0xbe505544	-0.20345026
20	0xbd8b673b	-0.06806799
21	0x3ebe6535	0.3718659
22	0x3d89734b	0.067114435
23	0x3f1c5961	0.6107388
24	0xbc6a2cb6	-0.0142928865
25	0x3e218e5d	0.15776964
26	0x3ea3850f	0.31937453
27	0x3dc349b1	0.0953554
28	0xbe916ba2	-0.2840243
29	0x3c482aee	0.0122172665
30	0x3e38eb7f	0.18058585
31	0x3d15f70f	0.036612567
32	0x3e6d41bd	0.23169608
33	0xbe92b380	-0.28652573
34	0x3c100252	0.008789616
35	0x3f194572	0.5987159
36	0x3c20e379	0.009819859
37	0x3e1fe8df	0.15616177
38	0x3ef37cd9	0.4755619
39	0x3eb7eacf	0.35921332
40	0xbe45782c	-0.19284123
41	0x3f018a4e	0.5060166
42	0xbc9deeff	-0.019279001
43	0xbce09080	-0.027412653
44	0x3cf43dc9	0.029814618
45	0xbd505a8e	-0.05086761
46	0xbe5a82c1	-0.21338941
47	0xbe6d99e5	-0.23203237
48	0x3d5d7c5c	0.054073676
49	0x3deeeab7	0.11665862
50	0xbe033dd0	-0.12816548
51	0x3ea9bf57	0.33153793
52	0x3ce31365	0.027719209
53	0x3d807649	0.06272561
54	0x3f115198	0.5676513
55	0xbdf7503b	-0.120758496
56	0x3f10b3b8	0.5652423
57	0xbd889d41	-0.06670619
58	0xbeb554d3	-0.35416278
59	0xbaae03c3	-0.0013276268
60	0xbe146db7	-0.14494978
61	0x3eb7595a	0.35810357
62	0x3e31176e	0.17294094
63	0xbef3f882	-0.47650534
64	0xbe55f5a2	-0.20894483
65	0x3c933761	0.017970743
66	0x3e3f729f	0.18696068
67	0x3ebf4423	0.37356672
68	0x3e4e86a7	0.20168553
69	0xbdb7bb9e	-0.08971332
70	0x3cdd7379	0.0270326
71	0x3f5e04fa	0.86726344
72	0xbe0449d5	-0.1291879
73	0xbd1ba5cf	-0.037999924
74	0x3dcc503e	0.099762425
75	0x3e4d9d81	0.20079614
76	0xbe3fe544	-0.18739802
77	0x3ed64a5f	0.41853616
78	0x3db48406	0.08814244
79	0x3e1f5c18	0.15562475
80	0x39c7ee1e	0.0003813365
81	0xbc4e096d	-0.0125754895
82	0x3cdf20c9	0.027237313
83	0xbe012057	-0.12609993
84	0x3d61f2f1	0.055163328
85	0x3d9af262	0.07565762
86	0x3db78162	0.08960225
87	0x3e4ca7d9	0.19985904
88	0x3da2529a	0.07925911
89	0x3ec3b57a	0.38224393
90	0x3e21d61b	0.15804331
91	0xbe566faf	-0.20941041
92	0xbdbf44ca	-0.09339292
93	0xbe5c8508	-0.21535122
94	0x3e12fdf1	0.14354683
95	0xbcf75dfd	-0.030196184
96	0xbe329bcf	-0.17442249
97	0xbe8f26fb	-0.27959427
98	0x3beb1260	0.0071738213
99	0x3e72fab9	0.23728456
100	0xbe186967	-0.14883958
101	0xbe01c0eb	-0.12671249
102	0x3dd32a6c	0.10310826
103	0x3e82eadf	0.25569817
104	0x3ed22ac8	0.41048265
105	0x3d36eb57	0.04465803
106	0x3d75fef6	0.060057603
107	0xbbd133a7	-0.0063843313
108	0x3ce3a014	0.027786292
109	0xbe4747ac	-0.19460934
110	0xbc09ce46	-0.008410996
111	0xbea41cd2	-0.32053238
112	0xbe006712	-0.12539318
113	0x3e2ac82f	0.16677926
114	0xbe2e57e1	-0.1702571
115	0x3c4ca48d	0.012490404
116	0x3db96c3f	0.090538494
117	0xbe2688b8	-0.16263092
118	0x3e29d83e	0.16586396
119	0x3e0a6655	0.13515599
120	0xbd40eb53	-0.047099423
121	0xbe467445	-0.19380291
122	0x3df790a1	0.12088133
123	0xbed5df5f	-0.4177198
124	0xbef98bfd	-0.48739615
125	0xbe252326	-0.1612669
126	0xbdb1c592	-0.08680262
127	0xbd91bc3f	-0.07115983
128	0xbe3cec88	-0.18449605
129	0xbed0ff02	-0.40819556
130	0x3f225f39	0.6342655
131	0x3d836c33	0.06417122
132	0xbe95a65c	-0.29228485
133	0xbdf63d32	-0.12023391
134	0x3e32e72f	0.17471002
135	0x3e1a07e1	0.15042068
136	0x3e980f39	0.29699114
137	0x3ea7cd59	0.32773855
138	0xbe491071	-0.19635178
139	0xbd9c5670	-0.07633674
140	0xbcea6b10	-0.028615505
141	0x3dc59076	0.09646694
142	0xbca9d7e5	-0.02073283
143	0x3d8b11f9	0.067905374
144	0xbe6e6485	-0.23280533
145	0x3e0aba1d	0.13547559
146	0xbe33d160	-0.17560339
147	0xbe5870b5	-0.21136744
148	0xbe7ad9fc	-0.24497217
149	0xbd4ced6c	-0.05003111
150	0x3dfb1832	0.12260474
151	0x3ebb0691	0.36528447
152	0xbe26e2a4	-0.16297394
153	0x3e3ccbcf	0.18437122
154	0xbd77d531	-0.06050605
155	0x3ea5c4d0	0.3237672
156	0x3d46fe04	0.048582092
157	0x3dcfdf8c	0.1015006
158	0xbe609ce8	-0.21934855
159	0xbcdf53f6	-0.027261715
160	0xbe7b5ad0	-0.24546361
161	0xbbc17995	-0.0059043863
162	0x3d388d22	0.04505647
163	0x3e8cc6cc	0.2749542
164	0xbe77bf0c	-0.24193972
165	0x3d6e63d3	0.05820067
166	0x3cd5adf8	0.026083931
167	0x3e61a3f8	0.22035205
168	0xbc8bdff6	-0.017074566
169	0x3e70c484	0.23512465
170	0xbda15376	-0.07877247
171	0xbd08d26c	-0.0334038
172	0xbd9c65f2	-0.07636632
173	0xbaf30c3b	-0.0018543074
174	0x3e98d0f8	0.2984693
175	0x3eb9268c	0.3616222
176	0x3ddb6c4e	0.10714017
177	0x3ecf06d8	0.4043491
178	0xbd242276	-0.040071927
179	0xbcfa1809	-0.030529039
180	0x39fb5126	0.0004793491
181	0xbf0fe92f	-0.56215185
182	0x3e0d7f03	0.13817982
183	0xbda4e090	-0.080506444
184	0xbe181fcc	-0.1485588
185	0xbea978ac	-0.33099878
186	0x3e03ce02	0.12871554
187	0x3d6b2331	0.057406608
188	0xbe9b432a	-0.3032468
189	0x3e3f5a95	0.18686898
190	0xbb980b7e	-0.004640042
191	0xbe540b73	-0.20707493
192	0x3dab8dec	0.08376679
193	0xbe92c1e6	-0.28663558
194	0x3eecaace	0.46224064
195	0x3eb4c6cb	0.35307917
196	0x3e475105	0.194645
197	0xbe4550bb	-0.19269077
198	0x3de4df10	0.11175358
199	0x3c8338c9	0.016018288
200	0x3e9a6071	0.30151704
201	0x3e337111	0.175236
202	0x3d613f6b	0.05499212
203	0x3dbfbeac	0.0936254
204	0x3dad595c	0.084643096
205	0x3e832a66	0.25618285
206	0xbd3c121a	-0.0459157
207	0xbdf241ca	-0.118289545
208	0xbd4bccca	-0.04975585
209	0xbe1a06f6	-0.15041718
210	0xbc07a57e	-0.0082792025
211	0xbe942c91	-0.2894025
212	0x3e417bdc	0.18894905
213	0x3e5a48ad	0.21316786
214	0xbe580221	-0.21094562
215	0x3ec7a9bf	0.38996693
216	0xbd903369	-0.07041056
217	0x3e4bc4de	0.19899318
218	0x3cba40e1	0.022736015
219	0x3d935e62	0.071957365
220	0x3e338a0d	0.17533131
221	0x3c67f637	0.014157823
222	0xbe3502ce	-0.17676851
223	0x3e137cc7	0.14403068
224	0xbdeed498	-0.11661643
225	0xbe5c7acf	-0.21531223
226	0x3e899e3b	0.26878533
227	0x3e2c354b	0.16817205
228	0x3d848ea9	0.06472523
229	0x3ccac1d7	0.024750633
230	0xbd80b290	-0.06284058
231	0x3e9d6b45	0.30745903
232	0xbe77d65d	-0.24202867
233	0xbe8dd8f0	-0.27704573
234	0xbcdea1d8	-0.027176782
235	0x3e42d333	0.19025879
236	0xbe972ff2	-0.29528767
237	0x3d0a9d32	0.03384132
238	0x3e5abe1c	0.21361583
239	0xbebd98c9	-0.37030628
240	0x3bda380e	0.0066595143
241	0x3e1a6233	0.15076523
242	0xbdd610ab	-0.10452398
243	0xbea9c3bc	-0.33157146
244	0x3e2b2f61	0.16717292
245	0xbe9c17ef	-0.3048701
246	0x3e950657	0.291064
247	0xbe54cbb2	-0.20780829
248	0x3e38b5e1	0.18038131
249	0xbe60b0db	-0.21942465
250	0x3de8cb2f	0.11366879
251	0x3cb32231	0.02186689
252	0xbd8545c3	-0.065074466
253	0x3e2cc912	0.16873577
254	0xbe327ed8	-0.174312
255	0xbdffb06b	-0.12484821

fc.2.bias f4 [64]
0	0x3ee2efd1	0.4432359
1	0x3e5af4fb	0.21382515
2	0x3ea7d996	0.32783192
3	0x3e6f559f	0.23372506
4	0xbde88d7f	-0.11355113
5	0xbd2ab04e	-0.041672044
6	0x3e694c65	0.22783048
7	0x3e99f206	0.30067462
8	0x3e42abb8	0.19010818
9	0xbeadfbf2	-0.33981282
10	0x3eb2f909	0.34955624
11	0x3d8b401c	0.06799337
12	0xbd8c522c	-0.068516105
13	0xbcede4d4	-0.029039778
14	0x3c3e046e	0.011597736
15	0x3ef225ac	0.47294366
16	0x3e0ec591	0.13942553
17	0x3e15a706	0.14614496
18	0x3e886540	0.26639748
19	0xbd0b18eb	-0.03395931
20	0x3e39a5d8	0.1812967
21	0x3e2ca494	0.16859657
22	0x3d97b4aa	0.07407506
23	0x3e5ee70f	0.2176783
24	0xbd22191d	-0.03957473
25	0x3e15e133	0.14636688
26	0xbd8b1d05	-0.067926444
27	0x3ec5e2cb	0.38649592
28	0x3ec30fa3	0.38097867
29	0x3e0921c5	0.13391788
30	0x3e925946	0.28583735
31	0xbd51e8af	-0.051247295
32	0xbe44eb0c	-0.19230288
33	0xbd10056b	-0.035161417
34	0xbd3ef4fa	-0.046620347
35	0x3d883e24	0.066524774
36	0x3ebfc2b1	0.37453225
37	0x3dcd3f75	0.10021869
38	0x3d9bd9f0	0.07609928
39	0xbdc90e12	-0.09817137
40	0xbcd28e95	-0.025702754
41	0xbd317780	-0.043326855
42	0x3e89c74f	0.26909873
43	0x3e7ca6f6	0.24673066
44	0x3e8d3f06	0.27587146
45	0x3e67e31d	0.2264523
46	0x3e36ed01	0.17863847
47	0xbdc7e558	-0.09760541
48	0x3ee5a160	0.44849682
49	0xbd31106d	-0.043228555
50	0xbe37dd51	-0.1795552
51	0xbd14be5e	-0.03631436
52	0xbe40a917	-0.18814503
53	0x3d2f068f	0.042730864
54	0xbd85b4bb	-0.06528612
55	0xbe62141c	-0.22077984
56	0xbdf818bb	-0.12114092
57	0x3eb28422	0.34866434
58	0xbd8e2c15	-0.06942002
59	0x3e8c6bde	0.27426046
60	0xbd5a41d6	-0.053285442
61	0x3e84429c	0.2583207
62	0xbd93478b	-0.0719138
63	0x3e59797b	0.21237747

fc.4.weight f4 [2, 64]
0	0x3e3c6ee8	0.18401682
1	0x3eed806a	0.46387035
2	0x3e953cbd	0.29147902
3	0x3ce38d53	0.02777735
4	0xbd8a37c6	-0.06748919
5	0xbd006dbd	-0.031354655
6	0x3d334bf0	0.04377359
7	0x3e5de36b	0.21668784
8	0x3d21bc74	0.039486364
9	0xbe04bf76	-0.12963662
10	0x3e85472d	0.26030865
11	0xbd0fa13c	-0.035065874
12	0xbe8a019e	-0.2695436
13	0xbd933d0c	-0.07189378
14	0x3e7b4a1d	0.2453999
15	0x3f045f9c	0.5170839
16	0x3dd4ac99	0.10384483
17	0x3d195531	0.03743476
18	0x3ce9a4c7	0.028520955
19	0x3da2071e	0.07911514
20	0x3e1c8846	0.15286359
21	0x3c459cb7	0.0120612895
22	0x3d14a57f	0.036290642
23	0x3d0b7e66	0.03405609
24	0x3e298c3c	0.16557401
25	0x3cdcd9f5	0.026959399
26	0xbcd30e62	-0.025763694
27	0x3e176f21	0.14788486
28	0x3ea7fb73	0.32809028
29	0x3e896d0c	0.2684101
30	0x3df40f43	0.119169734
31	0xbe68a13b	-0.22717755
32	0xbdea7f37	-0.114500456
33	0x3dbd4de6	0.092433736
34	0x3cba33b9	0.022729741
35	0xbc3a36a7	-0.011365569
36	0x3e203e83	0.15648846
37	0x3e14e96e	0.14542171
38	0x3e32aa5b	0.17447798
39	0xbd331c62	-0.04372824
40	0x3dd586bb	0.104260884
41	0xbe188612	-0.14894894
42	0x3e5dca7a	0.2165927
43	0x3da37e3a	0.0798306
44	0x3e85a1ee	0.26100105
45	0x3d313a5c	0.043268546
46	0x3e6f7d81	0.2338772
47	0x3d0d280b	0.034462016
48	0x3ecd44aa	0.4009145
49	0xbdf303e2	-0.11865975
50	0x3d66fd4a	0.0563939
51	0xbef9a09f	-0.48755357
52	0xbc86191a	-0.016369391
53	0x3e85aeba	0.26109868
54	0xbe8ec98e	-0.2788815
55	0xbe8ef65a	-0.27922326
56	0x3a1fa64f	0.00060901506
57	0x3ec80257	0.39064285
58	0xbe054b65	-0.13017042
59	0x3e12abd2	0.14323357
60	0xbdf5f75c	-0.12010071
61	0x3dd3eaad	0.10347495
62	0xbc4e10b2	-0.012577223
63	0x3e326562	0.17421487
64	0x3db3df71	0.087828524
65	0x3d5b6354	0.053561524
66	0x3e819ac5	0.25313392
67	0x3e36a94c	0.17838019
68	0x3e576c42	0.21037391
69	0xbdd4fc98	-0.10399741
70	0x3ea167bf	0.31524464
71	0x3d8a2fe1	0.067474134
72	0x3d8a49cc	0.06752357
73	0x3d802ea6	0.062588975
74	0x3e0208f1	0.12698723
75	0xbb98489b	-0.004647327
76	0xbcc460aa	-0.023971874
77	0x3e1202b5	0.14258845
78	0xbe01e398	-0.12684476
79	0x3ec45f40	0.3835392
80	0xbc841592	-0.016123567
81	0x3ec1bf7b	0.378414
82	0x3d6055d5	0.054769356
83	0xbe32772f	-0.17428277
84	0x3dc0ab50	0.09407675
85	0x3c9f8132	0.019470785
86	0xbd437d4f	-0.047726925
87	0x3e038122	0.12842229
88	0xbe2c094c	-0.16800421
89	0xbb9f40cd	-0.00486002
90	0xbd3d590d	-0.046227504
91	0x3ed7b659	0.42131308
92	0x3e47b9aa	0.19504419
93	0x3e26cc39	0.16288842
94	0x3e134397	0.14381252
95	0x3e12b80b	0.1432802
96	0xbec78bf7	-0.38973972
97	0xbe105ce9	-0.14097942
98	0xbdb3a1ae	-0.08771072
99	0xbc1e074e	-0.009645296
100	0x3ecdb3d3	0.40176257
101	0x3c986c1d	0.01860624
102	0xbd7d11fb	-0.061784726
103	0xbe0b66e7	-0.13613473
104	0x3cc4c7c0	0.02402103
105	0x3cf7fa11	0.030270608
106	0x3ecbedec	0.39829957
107	0x3e36e54c	0.17860907
108	0x3e6cf7e0	0.23141432
109	0x3f1a9800	0.60388184
110	0x3bfdb20a	0.007742171
111	0x3e3e527a	0.1858615
112	0x3ecbe546	0.3982336
113	0xbe684c5e	-0.22685382
114	0xbdd3a9af	-0.10335099
115	0x3ea9ecd7	0.33188507
116	0xbe4e114f	-0.2012379
117	0xbe5f1ca3	-0.21788268
118	0x3e336779	0.1751994
119	0xbe897c7c	-0.26852787
120	0xbeb8028e	-0.3593945
121	0x3dbe4209	0.09289939
122	0x3d5dcc0a	0.054149665
123	0x3e1b4fe5	0.15167196
124	0xbd36eec2	-0.04466129
125	0x3d8bd96f	0.068285815
126	0x3c4fed9c	0.012690928
127	0x3e2d79fe	0.16941068

fc.4.bias f4 [2]
0	0x3eb4020d	0.35157815
1	0x3ea77618	0.32707286
