Deep_Learning/kaggle/learing_house_prices/model_house_prices/model.pth (torch, 991397 bytes, 9 tensors)

mlp.0.weight f4 [350, 330]
000000 d2 b0 ab 3d a1 39 da 3c e0 fa b0 3d f2 33 29 bd
       0.08383335 0.026638808 0.086416006 -0.041309305
000010 cf c0 0d bd 84 7c 33 be 16 88 d0 3c 37 3b db bd
       -0.034607705 -0.17527968 0.025455516 -0.10704654
000020 d2 69 5c 3b 5b 20 df 3d d7 ab 72 3d 96 c3 24 3e
       0.003363241 0.10894843 0.05924591 0.16090235
000030 d1 5a b6 bb 94 61 7d 3c da 92 d9 3d 57 a8 2d 3d
       -0.0055650254 0.015465159 0.10623713 0.04239687
000040 2f 94 7f 3c 5a 79 61 3d 19 fe 08 be 0e d5 c6 bd
       0.015599295 0.05504737 -0.1337818 -0.09708606
000050 6e 9c 36 be a0 4f 7f 3d 91 cd 9e bb 8a ae 71 3c
       -0.1783311 0.062331796 -0.004846283 0.014751086
000060 c9 0a cd bd 8e c0 84 3c b5 53 59 bd 3b d0 c3 3d
       -0.10011823 0.016205098 -0.053058345 0.09561201
000070 0f 0a 24 3d de e6 8d bd fd b3 36 3d 02 75 b2 bd
       0.040048655 -0.069288 0.044605244 -0.08713724
000080 26 de 13 bd 44 84 42 bd 97 87 03 bc 5f 4e 22 be
       -0.03610053 -0.04748942 -0.008027933 -0.15850209
000090 a1 e9 da 3b 4f 8a a2 bc 27 b3 89 bd 75 4b 08 3e
       0.006680683 -0.019841341 -0.06723624 0.13310035
0000a0 fa 49 2b 3d ef a4 c5 3a f9 cc 93 3c d8 0a 28 bc
       0.041818596 0.0015079061 0.018042075 -0.010256492
0000b0 f2 8e 1f a8 ab 38 22 bd 69 a8 0c bd 17 40 b0 3c
       -8.857269e-15 -0.039604824 -0.034340296 0.021514935
0000c0 2d a4 41 bc f0 ba 57 3d 73 94 a2 3d 41 fa 92 bd
       -0.011818928 0.052668512 0.07938471 -0.071766384
0000d0 77 db 11 3d ad af a8 3d 8f fa 72 bd 4f 60 2d 3d
       0.03560969 0.082366325 -0.059320983 0.042328175
0000e0 3b 0a 71 bd 55 5b ca bc f9 bf a7 bd 80 82 c5 bd
       -0.058847647 -0.024701754 -0.08190913 -0.096440315
0000f0 a1 d0 17 bd 3c c9 1e 3e 25 9d df bc a8 e7 b8 3d
       -0.0370642 0.15506452 -0.027296612 0.0902856
000100 7e 62 3e bd 98 ed 84 bc d6 73 88 b9 e9 f2 bf 3c
       -0.04648065 -0.016226575 -0.00026026246 0.023431258
000110 b5 0b af bc fa 4e e7 bc db 53 3c 34 65 3c 19 bd
       -0.021367887 -0.028235901 1.7539371e-07 -0.037411112
000120 0b af bd bb 05 0d bc 3d 1f 87 09 bd c9 ce 38 bc
       -0.005788689 0.09182171 -0.033576127 -0.01127977
000130 f5 b1 60 bd 3a ad 93 3d 11 d7 66 3d 02 d8 57 bd
       -0.054857213 0.07210775 0.056357447 -0.052696235
000140 5e 1e 28 3d a4 cf a7 bc 75 10 d7 bd b5 02 35 bd
       0.041044585 -0.020484753 -0.10501186 -0.044192035
000150 e8 de 14 3d 9f ab 02 3e 2b 20 1e 3d 98 1a e6 bc
       0.036345392 0.12760781 0.038604897 -0.028088853
000160 fc c0 f3 3d 0d cd 90 bd 0b d2 80 bc 77 5b 0b bd
       0.11902043 -0.0707036 -0.015725156 -0.034022775
000170 a6 96 11 3e f1 66 88 3d 9f 82 5b bc f3 94 c9 3c
       0.14217624 0.066602595 -0.013397842 0.024607157
000180 85 43 15 bd 26 a9 56 3d 77 3d f4 bc 2e b1 70 3c
       -0.036441345 0.052407406 -0.029814465 0.01469068
000190 1e 0a 8b bd 38 90 9e 3d 77 53 f3 3c d9 38 80 3d
       -0.06789039 0.07742351 0.029702885 0.06260843
0001a0 77 5e 33 3e 5e a9 e4 3b fa 4a 0a 3d 91 b6 b7 3c
       0.17516504 0.006978198 0.03376291 0.022425922
0001b0 3b 53 b7 bd 9c 94 fd 3d 18 d1 9e 3c 8b 48 99 3d
       -0.08951422 0.123818606 0.019386813 0.074845396
0001c0 10 ff 00 3d 0b fc 21 3d 7e 74 09 be ca b7 2e bd
       0.031493247 0.039547008 -0.13423344 -0.042655744
0001d0 b7 53 50 3c 59 b3 15 be bf 85 2f 3d f8 08 b2 bd
       0.012715272 -0.14619197 0.04285216 -0.08693117
0001e0 37 ba 08 be 86 57 e9 ba a9 13 25 be 72 20 2f 3c
       -0.13352285 -0.0017802573 -0.16120781 0.010688888
0001f0 15 6d d2 bd 59 18 10 bd 97 8e 4b 3c 17 10 1f 3e
       -0.10274712 -0.03517947 0.012424133 0.15533482
000200 28 cb 38 bc de 91 dc 3c a4 ad 81 bd b9 d5 6a bd
       -0.011278905 0.026925024 -0.063319474 -0.057332728
000210 c7 d8 a3 bd 65 0b d0 bc de 89 b8 bc 7e 9c dc bd
       -0.08000331 -0.025396058 -0.022526678 -0.10772036
000220 23 fa f0 3c 65 0d 62 3a 61 10 9c 3d ae d0 06 3d
       0.02941615 0.0008623212 0.076203115 0.032913856
000230 b4 fd ee bd 21 e4 3d ba 12 41 f5 bc 99 a6 de 3d
       -0.11669484 -0.00072437717 -0.029938255 0.1087162
000240 77 6a 94 3d a3 6f 9b bc 27 c1 2c 27 68 41 ae 3c
       0.07246869 -0.018974131 2.3974503e-15 0.021271423
000250 17 79 3b bc bf 67 20 bc d6 84 1b bd 97 19 d8 bd
       -0.011442444 -0.00979036 -0.03796848 -0.10551756
000260 dc dc b3 3d e4 d1 7f bd da 2c c6 bd ad 91 99 39
       0.0878236 -0.062456027 -0.096765235 0.0002929097
000270 0b 2b 2f bd cc 45 10 3c a6 5c 74 bd 9f 0d 10 be
       -0.04276566 0.008805703 -0.05965867 -0.14067696
000280 9c fd e4 bb 51 a6 6a bd 2a 79 8b ad e1 5d 8a 3d
       -0.0069882404 -0.057287518 -1.5856278e-11 0.06756187
000290 d4 1d f9 bd 51 9b 85 3b df 3d e8 3d bf d5 c2 bd
       -0.121638924 0.004077353 0.11339926 -0.09513425
0002a0 b8 96 c5 bc 52 ee 8a 3c c4 c4 3b bd ee c2 f3 3d
       -0.02411972 0.016959343 -0.045841947 0.11902414
0002b0 fd dd d1 bb 6a bd a5 3d 05 6b 37 bd 2a 9f 8d 3c
       -0.006404637 0.080927685 -0.044779796 0.01728781
0002c0 cb fe 35 3d 23 5d 34 3c ba 48 99 3d 0c cc 61 bc
       0.044432443 0.011008534 0.074845746 -0.013781559
0002d0 ef 74 32 3d cc 45 7f 3d 2a b0 28 3d a0 4e d8 3c
       0.043568548 0.062322423 0.04118363 0.026404679
0002e0 c0 6d ad 3c 03 e6 04 3d 3f de 07 be e5 dc 6e bc
       0.021170497 0.03244592 -0.13268374 -0.014579033
0002f0 34 79 f7 b9 26 47 92 bd 43 6f e3 3d 34 a3 01 3e
       -0.00047201815 -0.07142477 0.11105206 0.12659913
000300 9f 9e fa bb e0 a0 bb 3d 8f 42 cc bc a4 5a 5d bc
       -0.0076483036 0.09161544 -0.024934081 -0.01351038
000310 23 26 b4 3d 96 69 7a 3d 72 28 62 bc 1a f8 2d be
       0.087963365 0.06113585 -0.013803588 -0.16989174
000320 37 37 fe 3d a6 00 90 3c 1a 19 b5 3d f7 fa 33 bc
       0.12412875 0.017578434 0.08842678 -0.010985128
000330 2f 56 11 3d 06 cf 59 3c 58 1d b4 3d a8 fb a3 bc
       0.03548258 0.013293987 0.087946594 -0.02001746
000340 9a d3 a6 3c 5f 5f 95 3d 4b 47 b1 bc eb 98 1a 3d
       0.020364571 0.07293581 -0.02164044 0.03774349
000350 2d 76 42 bd 82 1e 5b 3d f3 13 82 3d 29 a8 96 bd
       -0.047475982 0.05349589 0.06351461 -0.07356293
000360 c0 c8 c1 bd 03 ad bd bc a6 68 a5 bb 42 55 f7 3d
       -0.09462118 -0.023153787 -0.0050478755 0.120768085
000370 d9 9a 4b bd 18 e8 4f 3d c4 d7 f8 ba 1d be d1 3d
       -0.04970822 0.05075845 -0.0018985202 0.10241339
000380 cb 0f 02 be eb b8 45 bb b6 4f 25 3d e0 fe bc 3d
       -0.12701337 -0.0030170034 0.04035922 0.09228301
000390 ef 54 87 3b bd e5 5b bc 3f ff 5a 3d 6c e0 e5 bd
       0.004129998 -0.013421473 0.053466078 -0.11224446
0003a0 40 6c 46 be b2 b0 a3 3d d1 00 d0 bc b9 b8 e3 bc
       -0.19377232 0.07992686 -0.025391014 -0.027798044
0003b0 8c e7 e0 3c 44 16 b0 37 05 92 c9 bc 63 18 80 3d
       0.02745416 2.0991203e-05 -0.02460576 0.062546514
0003c0 cf 32 d6 bd d7 43 b5 3d 13 ad 05 3d 29 5c cd b5
       -0.1045891 0.0885083 0.03263576 -1.5300512e-06
0003d0 a5 ce 09 bd 09 06 f8 bb 4b 1c 84 3c fd 81 06 3e
       -0.033644337 -0.007569079 0.016126772 0.13135524
0003e0 03 fc 2e 3d a0 2d ef bd 47 69 72 bc 8c ca f3 3d
       0.042720806 -0.11678624 -0.014795608 0.11903867
0003f0 73 96 9b 3d 21 b8 15 3e 68 8a 88 3d cc 4a 52 3d
       0.07597055 0.14621021 0.06667024 0.051340863

mlp.0.bias f4 [350]
000000 fc 1a 11 bb 44 85 53 3c f0 8d 97 3c bc 9a 8c 3c
       -0.0022141328 0.012910191 0.018500298 0.017163627
000010 ac 75 46 3c bb 09 84 3c 8e cf 57 bb b7 51 4c 3c
       0.012113016 0.016117921 -0.0032930109 0.012470654
000020 79 8d 9f 3c 12 48 d7 3b 47 b5 24 bc 4b e6 35 3c
       0.01947664 0.0065698707 -0.0100529855 0.011102269
000030 9c 0a 69 3c 98 e0 00 3c b7 3a 47 3c f4 82 5b 3c
       0.014223721 0.007866047 0.012159995 0.013397921
000040 80 aa 37 bc a9 0c 66 3b e5 7a 10 bc 41 81 61 3c
       -0.011210084 0.003510276 -0.008818363 0.013763727
000050 1c 43 c2 3b 60 bb 2e 3c 9f 33 1f 3c c4 62 39 3c
       0.00592841 0.010664791 0.009716897 0.0113150515
000060 3f ee 73 3c 2f 07 d5 3b 56 f7 18 3c 47 e1 3e 3c
       0.014888345 0.0065011005 0.009336313 0.01165039
000070 ca ae 18 3c 00 dd 16 ba 9b ef 6e bc 13 9b 5f 3c
       0.009319017 -0.00057549775 -0.014583494 0.013647812
000080 b2 31 54 bb e9 91 37 3c 20 1b 2d 3c 2c 89 30 3c
       -0.0032378254 0.011204221 0.010565549 0.010774892
000090 64 da 55 3c 4e 8e 4d 3c 5f e8 25 3c dd d9 3d 3c
       0.013052557 0.012546135 0.010126202 0.011587587
0000a0 c7 68 28 bc 0c a5 d9 3a a4 8e c4 bb 78 05 5c 3c
       -0.010278887 0.0016604974 -0.0059984494 0.013429038
0000b0 6d 9c da b8 eb 25 e3 bb fc a0 4b 3c 0a 24 f1 3b
       -0.000104241866 -0.0069320104 0.012428518 0.0073590325
0000c0 a0 d1 3d 3c 35 74 08 3c 5e b3 21 3c 39 19 f6 3b
       0.011585623 0.008328487 0.009869425 0.007510331
0000d0 30 27 8b 3b 33 72 3e 3c 88 26 7b 3c 1e 9b 77 3c
       0.004246615 0.011623907 0.015329011 0.015112666
0000e0 0f e5 5d 3c 6b 45 2c 3c a8 a4 ae 3b b3 50 4d 3c
       0.013543381 0.010514597 0.005329687 0.012531447
0000f0 51 a0 a4 3b 5a 18 21 b9 59 e9 16 3c 4b d0 89 3c
       0.005023994 -0.00015363228 0.009210908 0.016822955
000100 be 7e 1b bc 79 bc 40 bb ca a3 1f bc bf c6 0b 3c
       -0.009490667 -0.0029409213 -0.00974364 0.0085312715
000110 4d 39 93 3c d7 09 03 3b 46 2e 5f 3c 5a 8f 20 3c
       0.01797166 0.0019994879 0.013621872 0.009799803
000120 c5 c3 28 3c cd 14 17 3c cb f8 1f bc 85 6d 62 3c
       0.010300581 0.009221268 -0.009763907 0.013820057
000130 49 1a 1a 3c 9e bb 4d 3c c7 1b 2f 3c c4 bd 29 bb
       0.009405681 0.012556938 0.010687775 -0.0025900463
000140 86 ae 8d 3c 4e 2c ba b4 ae 0f 05 bc af 70 20 bc
       0.017295133 -3.4677436e-07 -0.008121414 -0.009792491
000150 43 e6 0f bb 34 46 2b 3c 59 fc 5c 3c 90 2c 84 3c
       -0.0021957315 0.010453749 0.013487899 0.01613453
000160 00 22 73 bb 52 b0 0e 3b d2 18 66 3c e6 d6 28 bc
       -0.0037099123 0.0021772576 0.014044004 -0.010305142
000170 7d 48 f1 ba af c2 b3 3b b3 0c 52 3c fd 70 cd bb
       -0.0018408444 0.0054858546 0.012820411 -0.006269573
000180 b0 a3 43 3c 1d 38 39 3c 33 50 dd bb 5e d9 3d 3c
       0.011940882 0.011304882 -0.0067539453 0.011587469
000190 66 55 50 3b 53 c1 9a bb 95 73 9d 3a 21 f7 0c 3b
       0.0031789183 -0.004722753 0.0012012596 0.0021509605
0001a0 2b 32 16 3c ed 7a 7a 3a ed 61 25 bb 08 0e a9 3b
       0.009167234 0.00095550605 -0.002523537 0.0051591434
0001b0 0e de 52 3c cd a3 3c 3c e9 a7 4c 3b cd d3 cc bb
       0.012870325 0.0115136625 0.0031228012 -0.0062508346
0001c0 21 8c a5 3b df 70 8c 3c 1b 25 89 3c 9f 86 b2 b9
       0.005052105 0.017143665 0.016741326 -0.00034051106
0001d0 ac 1b 26 bc 2b 4b 99 3c 75 7b 6b 3c 00 ac 7a 3c
       -0.010138433 0.0187126 0.014372696 0.015299797
0001e0 02 2f 4e 3c 9a 46 63 3c a2 09 50 3c a9 aa 5a 3b
       0.01258445 0.013871813 0.012697609 0.0033365882
0001f0 a9 ae 61 3c 50 03 38 bb 84 6f 3a bc bc b7 fa 3b
       0.013774552 -0.0028078146 -0.011379126 0.0076512974
000200 2d 6d 4e 3c f7 55 c8 3b 0d 4c 34 3c 18 d7 b0 3b
       0.012599272 0.0061137634 0.01100446 0.005396735
000210 ee 3b d4 bb fc b7 32 bc 07 87 a2 ba 1d f0 7d 3c
       -0.0064768707 -0.010908123 -0.001239986 0.015499142
000220 64 93 ba bb 2f 3d 5b 3c a9 8d 43 3c 83 fa be 3b
       -0.00569384 0.0133812865 0.01193563 0.005828203
000230 d6 33 05 3c 55 ee 08 3c 29 f2 9b 3c e6 22 38 3c
       0.008130034 0.008357604 0.01903637 0.011238789
000240 a3 61 2d 3c bf be 34 bb 51 30 27 3c 59 11 26 bb
       0.01058236 -0.0027579514 0.010204391 -0.002533993
000250 dc c5 87 3c 3e 11 5c 3c 74 91 47 3a f9 47 17 bb
       0.016573839 0.013431845 0.0007612922 -0.002308367
000260 d2 94 fc 3b 69 f4 a4 bb 58 6d d3 3b 62 63 0b 3c
       0.0077081705 -0.005034019 0.006452244 0.008507581
000270 13 53 fc 3b b0 78 74 3c ad 2b 2a 3c e7 46 ea 3b
       0.007700333 0.014921352 0.01038639 0.0071495655
000280 84 fc 47 3c 43 7b 26 3c 29 d7 f0 3b 63 cb 24 3c
       0.0122062005 0.010161224 0.007349868 0.010058257
000290 7b 49 7d 3c ca 51 27 3c 0b 15 27 3c 33 4d 2d 3c
       0.015459414 0.010212371 0.010197888 0.010577488
0002a0 ef a5 14 3c 20 f5 7f 3c 49 4c cf bb e6 ea 4e 3b
       0.009072765 0.015622407 -0.0063262326 0.0031573116
0002b0 0e cc 42 3c 05 16 12 3c 87 e7 87 3b d8 f2 6e 3c
       0.011889471 0.008916383 0.0041474733 0.014584266
0002c0 b5 7e 4d bb ea c5 06 3c f9 25 1c 3c 2e 4e 3b 3c
       -0.003135604 0.008225897 0.009530538 0.011432214
0002d0 58 f1 86 3a 76 e6 4b 3c 8f 33 62 3c b8 c2 25 3c
       0.0010295315 0.012445083 0.013806238 0.010117225
0002e0 d2 cd a8 3a 8c bd ba bb cb e3 f5 bb f5 d9 d7 bb
       0.0012878722 -0.0056988653 -0.0075039617 -0.006587262
0002f0 1b b9 21 3c 68 be 54 3c 4e c1 d9 3b f5 a7 35 bb
       0.009870793 0.0129848495 0.006645358 -0.0027718518
000300 56 8e 81 3c a3 76 1e 3c 1c ac 43 3c 77 ab 64 3c
       0.015814941 0.00967184 0.01194289 0.013956896
000310 9a 53 30 3c 4c 9e 8b 3c 7c 22 52 3c 37 25 28 3c
       0.01076212 0.017043255 0.0128256045 0.010262779
000320 77 70 54 3c 3d 2a 95 3c d9 e5 08 3c 87 34 26 3c
       0.012966267 0.018208617 0.008355581 0.010144359
000330 7e e5 5d 3c e8 63 57 3c db 56 39 3c 1a df 1b 3c
       0.013543485 0.013146378 0.011312212 0.009513641
000340 a0 9f 13 3c d6 d2 67 3b 23 b1 2f bc eb 53 d1 3b
       0.009010226 0.003537347 -0.010723385 0.0063881776
000350 eb 2d 40 3c 89 67 83 bc 7d db 4e 3c a4 34 db 3b
       0.011729698 -0.01604058 0.012625572 0.006689625
000360 b8 84 79 3c af 33 25 bc 9e 1b 22 bc c7 3f 96 3c
       0.0152293965 -0.010083123 -0.00989428 0.018340958
000370 61 fb 89 bb b4 d4 75 3c 86 52 fb 3b 3c 69 17 3c
       -0.004210875 0.015004326 0.0076697497 0.009241398
000380 2b de 48 3c df 52 0a bc 9b 89 a9 bb 6a 4b 3b 3c
       0.01226 -0.00844261 -0.0051738746 0.011431554
000390 8b ad 51 3c a8 a2 99 bb 0b 1c 08 3c 4e d1 0e bc
       0.0127977235 -0.0046885796 0.008307467 -0.008716894
0003a0 bb 7e 80 3c 8f 57 23 3c 76 3a 3a bb b9 34 2a 3c
       0.01568543 0.009969606 -0.0028416193 0.010388547
0003b0 a5 3f 00 bc 77 04 f2 bb 71 2b 79 bb 3e 25 8c 3c
       -0.007827674 -0.007385786 -0.0038020278 0.017107602
0003c0 ae 20 dd 3b 8a 4c 6a bb af 92 31 3c 47 53 01 bc
       0.0067482805 -0.0035751187 0.010838195 -0.00789339
0003d0 78 00 90 3a b6 a3 0a 3c 6e f7 93 bb f4 f4 50 3c
       0.0010986468 0.008461883 -0.00451558 0.012753714
0003e0 84 bb eb bb db 57 27 3c 25 16 1c 3c 6a a2 b5 bb
       -0.0071939845 0.0102138175 0.009526764 -0.005543043
0003f0 d8 ae 33 3c a5 e6 00 bc 0a fa 14 bc b9 0b 6a 3c
       0.010966979 -0.00786749 -0.009092817 0.014285021

mlp.2.weight f4 [256, 350]
000000 2e ac de 3c a5 1c 56 bc 96 ef bc 3d 60 56 38 3d
       0.027181711 -0.013068353 0.09225385 0.04500425
000010 89 3e 1d 3d 57 74 15 3d 29 f1 24 bd 7d e4 dc bb
       0.038389716 0.036487903 -0.04026905 -0.006741105
000020 fa 2b a4 3d 82 05 17 be 97 4c 3e 3d 13 d5 15 3e
       0.080162 -0.14748195 0.04645976 0.14632063
000030 53 8d fe 3c 08 b4 5c 3d ca d2 79 bc f8 b7 78 3c
       0.031073248 0.05388263 -0.01524801 0.01518058
000040 47 f9 88 bd a1 46 d8 3c 52 d7 be bd 9a 0f c0 3d
       -0.06688171 0.026400866 -0.09318413 0.09377976
000050 a4 3c a4 3c 09 f8 13 3d 3c 0a b3 bd 01 e0 e8 3c
       0.020048447 0.036125217 -0.087421864 0.028427126
000060 80 58 f9 3c dc 1d 45 3d a4 a2 a9 3d 25 f0 94 3c
       0.030437708 0.04812418 0.08282974 0.018180916
000070 5c b9 f3 bc b2 28 98 bd 03 11 22 be 35 3f 0f 3d
       -0.029751472 -0.07429637 -0.15826802 0.03497239
000080 93 1f 55 3d f2 2c a7 3d f2 33 89 3d 41 bf 42 bb
       0.052032065 0.081628695 0.06699361 -0.0029716047
000090 19 71 1e 3d 01 10 46 bd a4 be 12 3d 5b 4d c1 3d
       0.038682077 -0.048355106 0.03582634 0.094385825
0000a0 24 97 9e 3d 66 48 29 3e 48 22 36 bd d7 3e 64 bd
       0.077436715 0.16531524 -0.044466287 -0.05572399
0000b0 f6 a6 f6 3b 56 0b a1 3d 93 21 c4 bd fb f4 c1 3c
       0.0075272275 0.0786349 -0.09576716 0.023676386
0000c0 86 e0 f0 bd 28 66 06 3d c1 44 8f 3d 6c 52 55 bd
       -0.117615744 0.032812268 0.06995536 -0.052080557
0000d0 98 8b 01 3e f0 26 50 3d 53 aa 12 bd 6b ce 28 3d
       0.12650907 0.050818384 -0.035806965 0.04121248
0000e0 f1 d6 04 bd ea 21 70 3c 40 20 e0 3d 44 7b 9e 3c
       -0.032431547 0.014656523 0.10943651 0.019345887
0000f0 45 89 22 3d 32 1e 82 3d 48 2c 9d bd 66 5c f0 3c
       0.03968169 0.063534155 -0.076744616 0.029340934
000100 d2 69 bd bc da 9c 14 3e d1 89 d1 3d af 62 8f bc
       -0.023121748 0.14512959 0.102313645 -0.01750311
000110 03 00 eb 3c 8c 55 57 3d 21 22 99 bc 4c 4b da 3c
       0.028686529 0.05257182 -0.018693032 0.026647232
000120 6c 32 f2 bd 58 5d 5b 3d 06 d3 91 bc 37 a5 9f bc
       -0.118260235 0.053555816 -0.01780082 -0.01948796
000130 32 79 65 3d 0a e2 7e 3d f1 e1 c2 bd e4 c0 1a bd
       0.056023784 0.062227286 -0.09515751 -0.03778161
000140 c0 12 a2 bc 76 42 a2 3c 41 ad 51 bd 34 88 b8 3c
       -0.019784331 0.019807082 -0.05119062 0.022525884
000150 be 6b 39 bd f2 5d 58 bd 3d f3 a6 3c 78 62 bf bd
       -0.045268767 -0.05282397 0.020379657 -0.09344953
000160 fa 0e cc 3c 8a 3b 02 3d 05 f9 2c 3e bb fc ce bc
       0.024909485 0.031795062 0.16891868 -0.025266996
000170 bf 32 88 3c b5 b9 99 3d f8 97 e3 bc 35 d0 0d be
       0.01662576 0.07506124 -0.027782425 -0.13848956
000180 44 87 af bc da 0f 7c ba 31 2f 01 bd 7e 4c ec 3c
       -0.021426804 -0.0009615399 -0.031539146 0.028845068
000190 0a 18 9c 3c e8 4c 3b 3d bc 04 dc bc ba f3 2e bd
       0.019054431 0.04572764 -0.026857726 -0.042712905
0001a0 4e 24 db 3c f8 4f 30 3c 7a 1d 17 be e6 fb 08 bd
       0.02675071 0.010761254 -0.14757338 -0.033443354
0001b0 27 79 89 3c b6 d3 1c 3e 4c c1 45 3d f6 d2 86 3d
       0.016781403 0.15315136 0.048280045 0.06583206
0001c0 b0 f9 e3 bc 8a 58 8b 3d 9d a1 6b bd 41 8f 08 3d
       -0.027829021 0.06803997 -0.057527173 0.033339743
0001d0 30 6d 11 3e 69 98 9f 3d 85 41 ac bd d9 b3 0b bd
       0.14201808 0.07792742 -0.08410934 -0.034107063
0001e0 81 86 2e bd 86 e3 0b 3d dc 2b d9 bc 59 5d 36 be
       -0.04260874 0.03415253 -0.026510172 -0.17809047
0001f0 14 e5 be bd 0e df 42 bd eb 8e ca 38 f8 56 42 be
       -0.09321037 -0.047576003 9.658731e-05 -0.18978488
000200 a0 2a a2 3d 71 65 99 bd c7 88 36 3e 5e 0d 79 bc
       0.07918286 -0.074900515 0.17825614 -0.015200941
000210 ba a4 82 3d ce ea e6 bd 15 53 0f bc cc 91 cd bb
       0.06379075 -0.11275254 -0.008747836 -0.006273484
000220 af 41 2a bd 02 d6 32 bc 39 57 19 bd 7c f0 03 3e
       -0.041566547 -0.010915281 -0.037436698 0.12884706
000230 6a 73 0f bd 67 e3 3b 3e 71 7e 29 3c 5d 1b c0 3d
       -0.035022177 0.18348466 0.010345087 0.09380219
000240 28 be 91 39 a6 b1 c0 3d 4b 33 ed 3a d6 7b 1e bd
       0.00027798233 0.09408884 0.0018096952 -0.038692318
000250 0e 38 d6 3b 70 42 29 3d 9c e1 2b be 2b ef 18 be
       0.006537444 0.041323125 -0.16785282 -0.14934985
000260 f4 00 fb bc 99 fb 69 be f6 cf 73 bd 78 f1 b3 3d
       -0.030640103 -0.22849883 -0.0595245 0.08786291
000270 f8 c9 ce 3d 79 17 f4 3c 40 3b 16 3e 10 c6 a7 bd
       0.10097116 0.029796349 0.1467104 -0.08192074
000280 71 da ce bb 6c f9 69 3b 87 bb 85 bd a0 7c 8f 3c
       -0.0063126613 0.0035701646 -0.065299086 0.01751548
000290 48 ba 49 3c 36 35 31 bc fe b6 f0 3d 13 8e 61 bd
       0.012312479 -0.010815909 0.11753653 -0.055067133
0002a0 3a 73 43 3e 3e 8b 32 be a1 fc 25 3d 07 6c 70 bc
       0.19086924 -0.17435929 0.04052413 -0.014674193
0002b0 28 d6 ec 3c 69 3d b4 bd 32 91 06 3d 9e 42 9a bd
       0.028910711 -0.088007756 0.032853313 -0.075322375
0002c0 fe 34 61 3d e5 9a 8b 3c 84 39 86 3d 45 d0 0c bc
       0.054982178 0.017041633 0.06553939 -0.008594577
0002d0 d7 a2 0e be 2d 64 8a 3b 46 0c 0d 3d f4 bf 7c 3b
       -0.13929306 0.0042233677 0.034435533 0.0038566561
0002e0 a8 74 c8 3b 88 cf a1 3d b0 ac 23 bd 25 1e 84 3d
       0.006117422 0.079009116 -0.03995961 0.06451062
0002f0 e2 43 b4 3c fb 0e b9 3d 72 79 8f 3b a7 72 7b bd
       0.022005025 0.090360604 0.004378491 -0.061388638
000300 bf f5 bb 3d c1 d9 3d bc da 5e a5 3d a0 68 91 bc
       0.09177732 -0.011587561 0.08074732 -0.017750084
000310 26 65 5f 3d fc 36 86 bd af 7f b6 ba db 10 37 bc
       0.054539822 -0.06553456 -0.0013923551 -0.011173452
000320 fd 99 8f 3d 27 9a 69 be a2 31 28 3d eb 2e 17 3e
       0.07011793 -0.2281271 0.04106296 0.14763992
000330 88 32 97 bd c8 df 78 3e 9e a8 e4 3a d0 de 00 3d
       -0.07382685 0.24304116 0.0017445271 0.03146249
000340 90 c2 d0 bc 8e 43 42 bd 61 c1 b1 3d b7 03 bd bd
       -0.0254834 -0.047427706 0.08679462 -0.09229224
000350 de 90 f3 bd c9 f1 27 bd 28 b4 a5 3d d8 1c 8a bc
       -0.118928656 -0.04100207 0.08091003 -0.016859457
000360 af 2c 4b 3d af 9e ae bd 5d 12 a3 3b 44 26 f7 bd
       0.04960316 -0.0852636 0.0049765543 -0.120678455
000370 34 65 9e 3d 81 aa a1 3d 2d e7 78 bd 5c d5 87 3d
       0.07734147 0.07893849 -0.06076734 0.06632492
000380 79 ae 4f 3c d5 78 15 bd b1 03 40 3d a5 3d 40 3d
       0.012675875 -0.036492188 0.04687852 0.04693379
000390 31 2d 04 3c 6d e8 4a 3e 56 62 95 3b bd 68 01 bd
       0.008067415 0.19815226 0.0045588417 -0.031594027
0003a0 ab 25 fc 3d 04 22 2e bd da 38 c3 bc ee 74 ae 3d
       0.12311872 -0.04251291 -0.02383082 0.08518396
0003b0 1d 80 d1 3c d6 87 a7 3c f2 0c 22 3c 21 35 7e 3d
       0.025573784 0.020450514 0.009890782 0.062062386
0003c0 56 ca d5 3d ae 3b c3 3d 1a 5c 8d bc 3d bb d7 3d
       0.10438983 0.09532867 -0.017255832 0.1053376
0003d0 e9 41 37 bd 6c b4 ce bd da 22 f1 3d 7a 12 2d 3e
       -0.04474059 -0.100930065 0.117742255 0.1690158
0003e0 ca 62 21 3c 2f 89 1b 3e 40 49 3b 3d 6f d6 2e 3d
       0.009850213 0.1518905 0.045724154 0.04268497
0003f0 af 6e 22 3e cc fc d9 3d 9d f1 b7 bd cf e8 03 bd
       0.15862535 0.1064392 -0.08981631 -0.032204445

mlp.2.bias f4 [256]
000000 a9 13 29 3c ca 09 44 3c c9 04 38 3c ec df fc bb
       0.010319629 0.0119652245 0.01123161 -0.0077171233
000010 68 de fb 3b e3 71 1c 3c 0c 27 00 bc 9c d5 3f 3c
       0.007686425 0.009548637 -0.0078218095 0.011708643
000020 b0 d5 40 3c 30 41 5e 3c 79 69 c2 bb 8b 72 03 bc
       0.011769697 0.013565347 -0.0059329835 -0.008022915
000030 fc 70 fc bb eb 41 6f bb 31 46 47 3b c7 d6 5b 3c
       -0.0077038985 -0.0036507796 0.0030406828 0.013417906
000040 d6 7b d9 3b e3 a5 54 3b 9b 93 20 3c 20 46 e1 bb
       0.006637077 0.003244751 0.009800817 -0.0068748146
000050 aa f2 a5 bb c4 39 7d 3c d8 b0 d3 bb ca 90 28 bc
       -0.005064328 0.015455667 -0.0064602904 -0.010288427
000060 e6 a4 97 3b f3 8d 24 3c d4 36 2a 3c 5e 3f c0 bb
       0.0046278117 0.010043609 0.010389049 -0.005866929
000070 a5 9a 40 ba 01 f4 e8 bb 56 15 79 3c 20 01 43 3c
       -0.00073472626 -0.0071091657 0.015202841 0.011902124
000080 bc 3a 43 3b 86 95 be 3b e1 32 49 3b 4b 20 66 bb
       0.0029789647 0.0058161644 0.0030700492 -0.0035114463
000090 0a 70 0d bb 66 83 fc 3b d5 3a aa bb 86 3f 21 bb
       -0.0021581673 0.0077060936 -0.0051950016 -0.0024604513
0000a0 ac 11 47 3c ad 7a e4 bb 64 f0 47 3c ff b7 01 bb
       0.012150209 -0.006972632 0.01220331 -0.0019793508
0000b0 20 e5 5c 3b ff 83 f7 b6 36 97 36 3c 98 1f 20 bc
       0.0033705905 -7.37654e-06 0.01114445 -0.009773158
0000c0 43 40 15 3c 17 cf 88 3c 67 d5 29 3c 42 f5 46 3c
       0.0091095595 0.01670031 0.0103658205 0.012143435
0000d0 a3 34 74 3c 7f 67 20 3c 79 fc 29 3c a1 a2 55 3c
       0.014905128 0.0097903 0.010375136 0.013039262
0000e0 e8 21 0d bc 05 12 b1 3b 21 57 15 bc a9 5c 72 3b
       -0.008614041 0.0054037594 -0.009115011 0.00369815
0000f0 84 e7 98 bb 60 37 90 bb 78 8c 32 3c 8b 6e 22 3c
       -0.0046662707 -0.0044011325 0.010897748 0.009914051
000100 dc 75 6f 3c 96 01 31 3c 0b 61 c3 3b e7 77 30 3c
       0.014615502 0.010803601 0.005962496 0.010770774
000110 16 8d c7 bb 1e 21 33 3c d5 c5 5e 3c 8e 0c 3f 3c
       -0.006089817 0.010933189 0.0135969715 0.011660708
000120 90 81 35 3c 6d 7e 1b 3c 65 15 a8 bb 8f d9 25 b9
       0.011078253 0.0094905915 -0.0051295036 -0.00015816673
000130 7a bc fa 3b f6 bb a1 3b a5 13 84 3c 19 1a 83 3c
       0.0076518627 0.004935737 0.016122648 0.016003655
000140 f2 cf 50 3c c9 cd 03 bc 70 c5 b6 bb 39 2f d1 bb
       0.0127448905 -0.0080446685 -0.0055777356 -0.006383803
000150 74 c2 a2 bb a1 3e 10 3c 19 94 4c 3c 97 93 54 3b
       -0.0049670283 0.008803994 0.012486481 0.0032436603
000160 ff ae 87 bb 2f 0b 06 3c 4a 94 06 3c 8c f6 ae b9
       -0.004140734 0.008181377 0.008214066 -0.00033371558
000170 ed fc 63 3c 89 eb 89 3c 41 de 20 bb 2a 47 8b ba
       0.013915283 0.016835945 -0.0024546536 -0.0010626067
000180 85 41 7a 3c f0 58 17 3c 74 79 9a bb 43 69 33 3c
       0.01527441 0.009237513 -0.0047141854 0.010950389
000190 61 b5 1d 3c d4 6b 3c 3c 6b 44 f0 3b c9 6d 54 3c
       0.009625764 0.011500318 0.007332375 0.012965628
0001a0 02 59 6d 3c 09 06 30 3c e6 84 bc bb ae d6 17 3c
       0.014486553 0.010743626 -0.0057531474 0.009267492
0001b0 6b 2b 15 3c ff 1a df bb 30 6a 55 3c cf 50 a3 3b
       0.00910459 -0.006808638 0.013025805 0.0049839984
0001c0 9c ac 1c ba 30 49 c3 3b 81 b2 5f 3c 7f f1 39 3c
       -0.00059766485 0.0059596524 0.0136533985 0.011349081
0001d0 8a 93 96 3a 4f f5 eb bb 0f b1 ae 3b 80 c4 79 3c
       0.0011488062 -0.007200874 0.0053311656 0.015244603
0001e0 11 b8 10 3c 43 c5 cb bb 09 23 65 bb 96 89 1e 3c
       0.008832947 -0.006218584 -0.003496351 0.009676358
0001f0 5f 7a 97 ba 46 42 53 3c a0 a1 06 3c a5 1f 7f 3b
       -0.0011556855 0.012894219 0.008217245 0.0038928774
000200 8d b4 49 3c 7a ca 29 3c 55 49 ff 3b 93 ea 54 3c
       0.012311113 0.010363216 0.0077907243 0.01299538
000210 3c c7 ee bb 17 65 57 3c 51 2f 30 3c 77 b9 37 3c
       -0.007286934 0.01314666 0.010753469 0.011213652
000220 b6 9c 52 3c 20 19 1e 3c 51 c1 56 3c 82 38 51 3a
       0.012854746 0.009649545 0.013107614 0.00079811376
000230 01 83 24 3c 7c 5d 57 3c ae 9f 57 3c fe fd e8 bb
       0.010040999 0.013144847 0.013160629 -0.0071103564
000240 a7 ed 63 3c 65 b2 6f 3c 9f 9a 80 3c 31 97 dc bb
       0.013911641 0.014629935 0.01569873 -0.0067318906
000250 7c 1b be bb 79 19 24 3c e3 f2 d0 3b 60 f7 16 3c
       -0.0058016162 0.010015839 0.0063766106 0.009214252
000260 fb a9 81 bb 96 46 42 3c 5f 6d 9e bb c2 ba 28 3a
       -0.003957031 0.011857649 -0.0048348154 0.00064365205
000270 74 ca c0 3b ef 3d 51 3c a0 98 d0 bb ad d3 dc 3b
       0.0058835093 0.012771114 -0.0063658506 0.006739101
000280 8a d9 0a ba 12 98 36 3c 88 a1 9b bb 51 c1 e2 bb
       -0.0005296698 0.011144655 -0.0047494806 -0.006920018
000290 2f e2 1e bb 72 86 12 3b 34 30 9d bb 97 80 51 3c
       -0.0024243703 0.0022357968 -0.004797006 0.012787006
0002a0 d6 7c 30 3c 5b f4 2c bc d1 07 65 3c af 81 28 3c
       0.010771951 -0.010556306 0.013978914 0.010284825
0002b0 e2 e2 92 bb 4d 79 9d 3b 4c 8d 25 3c 5d e3 44 3c
       -0.004482613 0.00480572 0.010104489 0.012017098
0002c0 12 92 2d 3c fc 7d de bb 62 57 27 3b 05 4b 85 bb
       0.010593908 -0.006789921 0.0025534262 -0.004067781
0002d0 9e 2b b7 3b 9f df 48 3c 33 22 17 3c cc 95 58 3c
       0.0055899164 0.012260347 0.009224462 0.013219308
0002e0 ec a1 3e 3c 92 f9 78 bb 01 25 6d 3c af ca 50 3c
       0.011635285 -0.0037990552 0.014474154 0.012743636
0002f0 cf 92 13 3c 9f e7 55 3c 4f b7 f7 3b 2a b3 bc 3a
       0.00900717 0.013055711 0.007559694 0.0014396657
000300 1e 3e 3b 3c 96 b6 36 3c 26 be 3a bb f6 46 12 bc
       0.011428384 0.01115193 -0.0028494685 -0.008928051
000310 d4 a1 20 3c 32 50 67 3c 21 aa 05 bc 05 40 2b 3c
       0.009804208 0.014118241 -0.008158238 0.010452275
000320 02 66 c2 bb cb 77 f5 bb c8 35 4f bb e7 2f 45 3c
       -0.0059325704 -0.007491087 -0.003161775 0.012035347
000330 9e ce f9 bb 3a 4d d9 bb cf b1 c5 bb d5 00 b1 ba
       -0.0076235076 -0.0066315206 -0.0060331593 -0.0013504276
000340 8a d6 32 3b 8d 1d c8 bb d5 95 6d 3b 25 7a 4e 3b
       0.002728852 -0.0061070384 0.0036252637 0.003150591
000350 49 71 6b bb d4 e0 4b 3c 77 11 ad bb 42 4a 44 3c
       -0.0035925678 0.01244374 -0.005281623 0.011980595
000360 9a 79 47 bb 58 6d 14 3c 17 32 9e bb 7e 9d ec bb
       -0.003043747 0.009059273 -0.0048277485 -0.007220923
000370 c3 8e 68 3c 34 9b 29 3c 2c 42 06 bc 43 79 51 3c
       0.014194193 0.010351945 -0.008194488 0.012785259
000380 09 f8 6c 3b 07 87 d7 bb cd f5 44 3c 47 a5 c5 bb
       0.0036158583 -0.006577376 0.012021494 -0.0060316655
000390 3c 7d 1b 3c 4a 88 ca bb 32 c3 f7 ba 05 c2 4d 3c
       0.009490307 -0.0061807977 -0.0018902777 0.012558465
0003a0 11 0f 2b 3c 6a 60 c0 bb ec 84 1f bc c1 51 09 3a
       0.010440604 -0.0058708685 -0.009736281 0.00052383175
0003b0 e9 1d 85 3b db 55 c4 bb b2 c2 ff 3b f7 dd de 3b
       0.0040624035 -0.00599168 0.007805192 0.0068013626
0003c0 22 60 55 3b 6f 4b 21 bc b2 03 fa bb 29 00 12 3c
       0.003255852 -0.009844645 -0.007629835 0.008911171
0003d0 49 7e 2b 3c 01 3b 3a 3c 54 82 c2 bb 98 a4 11 bc
       0.01046712 0.011366607 -0.0059359465 -0.00888934
0003e0 35 2e 0b 3c e0 d8 c1 3b 29 94 24 3b bd 1c 58 3c
       0.008494903 0.005915746 0.0025112724 0.0131904455
0003f0 17 6a eb bb ef 0b 43 3c 17 7d 4b 3b 66 35 32 3c
       -0.0071842778 0.011904701 0.00310499 0.010876989

mlp.4.weight f4 [128, 256]
000000 9c 61 e4 bd 40 71 9e bc e3 b5 e8 bd b1 fa 23 3e
       -0.1115143 -0.019341111 -0.11362817 0.160136
000010 51 3b a3 bd 28 99 a1 3b f8 97 45 3e e9 b1 44 3e
       -0.07970298 0.0049315877 0.19296253 0.19208492
000020 16 91 f7 bd 1f 8c 31 bd c8 c9 12 3e fa b6 49 3d
       -0.1208822 -0.04334652 0.14334786 0.049246766
000030 16 72 0b be ba 2b d6 3d 48 e4 06 3e 70 e8 01 bd
       -0.13617739 0.10457559 0.1317302 -0.03171581
000040 8e f7 de bd e1 f3 dc 3d 54 50 0c 3d d3 3a 52 3d
       -0.10887061 0.10788704 0.034256294 0.05132563
000050 96 0b 7b 3b 76 42 53 3d 3d da 21 3d 37 42 60 bd
       0.0038306466 0.051577054 0.03951477 -0.054750647
000060 34 4e f7 3d da 9e 1a 3d 19 79 0f bc 1a cb 3b bd
       0.12075463 0.03774915 -0.008756899 -0.04584799
000070 95 92 61 bb f8 c8 90 3c 01 67 e6 bd 61 37 11 be
       -0.0034419645 0.017673954 -0.11250115 -0.14181282
000080 d6 cd cd 3c 8f 40 64 3d 80 d6 ec bc f6 5e 35 3d
       0.025122564 0.05572563 -0.028910875 0.044280015
000090 7b d8 0c bd b8 31 a3 3d 72 40 4d 3d c6 3a 68 be
       -0.03438614 0.079684675 0.050110288 -0.2267867
0000a0 9a b1 1c bd 42 ab 65 3d 01 1e 7c bd 15 38 69 3c
       -0.03825531 0.056071527 -0.06155205 0.014234562
0000b0 48 34 08 3c d2 86 72 3c a0 f3 48 3d 37 19 ca bd
       0.008313246 0.0148026515 0.049060464 -0.098680906
0000c0 6d 9d d0 bc ab b4 83 bd ab 56 e9 bd 30 7f 8e bd
       -0.025465691 -0.06430944 -0.11393484 -0.06957853
0000d0 8d fd 27 3e 0f 35 e3 3d 0f f2 3a 3d 91 98 81 bd
       0.16405316 0.110941045 0.045641 -0.06327928
0000e0 6b ce 11 be d3 7c b6 3d f2 01 3f be 7a 5b dc 3d
       -0.14238898 0.08910527 -0.18653086 0.10759635
0000f0 fa 83 e4 3c 63 ed 62 3c 7c f8 d8 3c b5 a9 20 be
       0.027894963 0.013850543 0.026485674 -0.15689738
000100 7e 18 4a bd 0b a4 22 bc 71 41 4b bd a5 2c 84 3d
       -0.049339764 -0.009926806 -0.049622957 0.06453828
000110 3f b9 5e 3d f7 8e 38 be 22 91 2b bd e3 23 8a bd
       0.054375883 -0.18023287 -0.041886456 -0.06745126
000120 71 96 48 be bc f4 cc bb 08 fa 88 bd f6 bf cc 3d
       -0.19588639 -0.0062547605 -0.06688315 0.09997551
000130 dc 24 5d 3e 79 8f b2 3d b7 2b c3 bd 89 e0 2d bd
       0.21596092 0.087187715 -0.09529822 -0.04245046
000140 5b 21 0e bd db 8f 85 bd 34 c7 22 3d 21 17 01 bd
       -0.03469978 -0.06521579 0.039740756 -0.031516198
000150 9a 93 35 be 26 10 a4 3d 21 cf 9a bd 9e 50 99 bb
       -0.17732087 0.080108926 -0.07559038 -0.0046788
000160 1f 65 fc bc 20 13 05 be dc 35 23 bd e0 0f cc bd
       -0.030809937 -0.12995577 -0.039846286 -0.099639654
000170 c1 bc a7 bd 13 9c 2c 3d c8 40 9e 3d c3 a9 27 3c
       -0.08190299 0.04214103 0.077272 0.010233345
000180 b4 53 c8 bb 84 6f 00 3d 07 9f 15 3d ec ba 1d 3d
       -0.006113494 0.03135635 0.036528613 0.03850834
000190 8f 9d 93 3d 76 7a 58 bb ca c2 ed 3d af 56 27 3c
       0.07207786 -0.0033031977 0.11609419 0.010213538
0001a0 36 a6 d3 3d be 1b 01 be b4 38 d3 bc b6 da d5 bc
       0.103344366 -0.12608239 -0.025783874 -0.026105266
0001b0 7b 39 7d bd f4 b1 89 3d a3 c8 b0 3d 33 49 e5 3c
       -0.061822396 0.06723395 0.086320184 0.027989006
0001c0 d1 d0 b8 3d a2 65 06 3d 4a a1 47 3d 84 a1 30 3d
       0.090242036 0.03281177 0.0487378 0.043122783
0001d0 2e 28 a0 3d 23 74 c6 3c da 7b f2 3c d0 50 32 be
       0.07820164 0.0242253 0.029600073 -0.1741364
0001e0 66 db 10 3e e2 a2 8d bd 86 61 8e bd 19 58 ca bd
       0.14146194 -0.06915833 -0.06952195 -0.098800845
0001f0 d4 76 5b 3d 0a 6f a2 3d d4 e3 b9 3d 38 1f 9e 3c
       0.05358012 0.07931335 0.09076658 0.019301996
000200 81 48 36 3d d0 11 29 3c 9f a5 13 3e 41 f5 48 3e
       0.04450274 0.010319188 0.14418648 0.19624807
000210 17 47 8b bb 5d 53 a5 bd 64 55 6c 3d 23 5e fe bd
       -0.004250418 -0.08072541 0.057698622 -0.12420299
000220 7d 58 93 bd 0e 50 0a 3d b2 49 4d 3c dc 59 6e 3d
       -0.07194612 0.033767752 0.012529777 0.058191165
000230 11 ed 72 bd 57 3b 15 be a0 f3 82 3d 4b 3d 1f 3d
       -0.059308115 -0.14573418 0.06394124 0.038876813
000240 f7 7c 2b 3d cd 30 ce 3d 34 3e d6 3c 68 11 1b be
       0.041867223 0.10067902 0.026152708 -0.15143359
000250 39 fb 40 bb f9 49 db bc 5e fb 3a be 2a 16 a5 bd
       -0.0029446615 -0.026768671 -0.18259951 -0.08060868
000260 4b a9 db bd 8f e3 88 bc 38 1f a7 bc 13 70 a6 3d
       -0.107256494 -0.01671007 -0.020400628 0.08126845
000270 38 f7 98 3d fb 79 36 3c 00 32 24 be 7a 13 3a bd
       0.07469028 0.011137481 -0.16034698 -0.04542873
000280 81 ab 56 bd 61 2e cf bd a7 1c af bd 45 9d 09 bd
       -0.052409653 -0.10116268 -0.08550387 -0.03359725
000290 e7 75 38 bd 61 9c 0c 3e 99 da 62 bc 1e e1 fc 3d
       -0.045034315 0.13731529 -0.013846063 0.12347625
0002a0 69 79 1c 3e db f3 b7 bd e0 ee 1b 3d 63 60 37 bb
       0.1528069 -0.089820586 0.038069606 -0.0027981035
0002b0 cd 96 a8 3d 1f 66 25 bd 23 9e 93 bd 48 96 6a 3c
       0.08231888 -0.040380593 -0.072078966 0.014318056
0002c0 1e cf 9b 3d 46 91 2d bd a3 b4 84 bc 30 86 d0 bd
       0.07607864 -0.04237487 -0.016199416 -0.10181844
0002d0 4d 2e 90 3d 9a cf ca bd bb 35 59 be 82 39 0e be
       0.07040081 -0.09902878 -0.21211903 -0.13889125
0002e0 c3 eb 8b 3c d1 d8 5f 3d d6 94 bf bd 63 d6 d5 3c
       0.017080193 0.05465013 -0.0935456 0.026103204
0002f0 b6 62 3f 3d a6 e8 a9 3d c6 5c 29 bc bf de 64 bd
       0.046724997 0.08296327 -0.01033706 -0.05587649
000300 19 ba 2f 3d 56 4d b1 bc e8 f5 ce 3d 6d 0b 6b 3d
       0.042902086 -0.021643322 0.10105497 0.057383943
000310 b3 ad 5b bd 7b c5 0f 3e 5d 28 ea bd 2e 51 f1 3d
       -0.05363245 0.14040177 -0.1143348 0.11783062
000320 91 1e 83 38 44 dc 3b 3d cd 61 84 3d 75 a8 8c 3e
       6.25226e-05 0.04586436 0.064639665 0.27472273
000330 40 db 85 3b dc 7b 49 3d 26 30 34 bc a4 4a aa bc
       0.0040849745 0.049190387 -0.010997808 -0.020787545
000340 e8 e4 aa 3d 77 0b 56 3d 6a a2 a5 3d 09 5e 72 bd
       0.08344442 0.052257027 0.08087619 -0.05917171
000350 93 aa 1b bd a1 eb ad 3d ab f5 32 3d bb 07 d3 3c
       -0.03800447 0.08492208 0.04369132 0.025760522
000360 9f 17 7f 3d d1 78 39 be 63 74 ce 3d 43 93 46 bd
       0.062278386 -0.18112494 0.10080793 -0.048480283
000370 ad b8 15 be 05 6e 9f bc c9 d3 52 bc fb 47 6e 3d
       -0.1462123 -0.019461641 -0.012867876 0.058174115
000380 3a 88 12 bc d7 f5 d3 3b c9 5f d9 3d cf b6 99 3d
       -0.008943612 0.0064685154 0.10613973 0.07505571
000390 2c de 16 3d 71 12 26 3d 30 1d 11 3e e2 ac 68 bb
       0.036832973 0.04054493 0.1417129 -0.0035503437
0003a0 a3 37 f1 bb 1f 52 5e 3c a7 57 18 be f8 74 58 bd
       -0.0073613687 0.013569384 -0.14877187 -0.052845925
0003b0 8a 80 17 3e df 98 d4 bc d2 e8 fa bc eb 90 95 bd
       0.14795128 -0.0259518 -0.030628596 -0.073030315
0003c0 01 b6 04 3c 0f 7d 8f 3c 42 96 51 3c 51 f8 bc bc
       0.008100034 0.017515687 0.012792172 -0.023067625
0003d0 63 e3 44 3c 59 14 dc 3d f1 fd d5 bd 88 1f 7d 3d
       0.012017104 0.107460685 -0.10448826 0.06179765
0003e0 50 33 f4 3d a3 85 a7 3c 6d 10 f8 bc a1 d8 0f bd
       0.119238496 0.020449465 -0.03028127 -0.035118703
0003f0 92 f8 fa 3d d8 5a a8 3d 4e 0a e6 3d b0 22 aa 3d
       0.12254442 0.08220452 0.11232434 0.08307397

mlp.4.bias f4 [128]
000000 20 ee 86 3b a2 ca 0b 3c 20 d4 7c bb 5d 97 37 bb
       0.004117742 0.008532198 -0.0038578585 -0.0028013804
000010 32 ab 30 3c fd a2 24 3c ef c3 54 3c ee 16 aa bb
       0.010783004 0.010048625 0.012986167 -0.0051907217
000020 c0 bc 06 bc 85 7b 75 3c dd cc d4 3a f8 91 51 3c
       -0.008223712 0.014983063 0.001623537 0.012791149
000030 74 dd 1a bc c0 d7 ba ba 28 b9 ec bb 9f 20 1c 3c
       -0.009452213 -0.0014254972 -0.007224221 0.009529262
000040 bd 56 7e bb 55 be 9f bb c3 5a 06 3b 32 e7 8e 3b
       -0.0038809024 -0.0048749843 0.0020500876 0.0043610567
000050 de dd f0 bb bd e6 0a 3c ed f5 e8 3b 79 29 28 3c
       -0.0073506674 0.008477864 0.0071093948 0.010263794
000060 29 37 5b bb 87 d0 22 3c af 22 a6 bb ec be 18 3c
       -0.0033449626 0.009937412 -0.0050700526 0.009322863
000070 e9 0c 2f bb 59 5d 05 3c f6 2c 8c 3c 7c 21 38 3c
       -0.0026710576 0.008139932 0.017111283 0.011238452
000080 a1 75 dd bb bf 72 99 3b 12 26 54 b8 83 e5 9c bb
       -0.006758407 0.0046828683 -5.0580195e-05 -0.004788102
000090 b9 9c 51 ba 44 40 97 bb e6 5b 5a bb c8 f2 61 bb
       -0.0007996071 -0.0046158154 -0.0033318936 -0.0034476984
0000a0 c0 8e 26 3c 54 ed b2 bb 7e b3 46 bb 6c 27 eb 3b
       0.01016587 -0.0054604206 -0.0030319388 0.0071763303
0000b0 2e 07 3f 3c 81 4c 30 3c ee 27 d6 bb 79 c3 de 3b
       0.011659427 0.010760427 -0.0065355217 0.0067982045
0000c0 82 25 7e b9 fc 42 0e 3c 6e 5a 7c bb ea 04 40 3c
       -0.000242373 0.0086829625 -0.0038506049 0.011719922
0000d0 27 a1 d1 bb 28 84 ca ba ad f7 a0 bb bc b9 04 ba
       -0.0063973847 -0.0015450763 -0.0049123378 -0.0005063077
0000e0 f9 0d c3 3b 6b c4 dc 3b 58 7b b4 bb 44 4d ee ba
       0.0059525934 0.006737282 -0.005507868 -0.0018180986
0000f0 7a 0a eb bb fe bf cd ba 66 ac 08 3c 51 85 c1 ba
       -0.0071728798 -0.0015697477 0.008341884 -0.0014764463
000100 5f 36 d3 bb 8f 91 24 bb 68 47 16 ba 41 34 68 bb
       -0.0064456905 -0.0025111174 -0.0005732686 -0.0035431536
000110 0d e1 aa bb b5 f8 d7 3b df f4 94 bb 09 62 4c 3c
       -0.0052148164 0.0065909275 -0.0045457925 0.012474545
000120 41 15 25 b9 75 e0 97 bb 7f 45 03 bc 12 68 2e 3c
       -0.00015743544 -0.0046349117 -0.008012175 0.0106449295
000130 55 21 a2 bb 33 24 45 3c 58 4b 14 3c 74 4f 09 3c
       -0.004947821 0.012032556 0.0090511665 0.0083807595
000140 d6 ee 46 3c d0 42 ae bb 3c 7c 8f bb 05 fc 48 bb
       0.012141904 -0.0053180233 -0.0043788236 -0.0030667793
000150 e7 bd d3 bb 0b be 05 bb a2 66 26 3c 24 2a bd bb
       -0.006461847 -0.0020407464 0.0101563055 -0.005772846
000160 08 51 d8 bb cd aa a7 bb a8 71 45 3c 30 4d 93 bb
       -0.0066014566 -0.0051167966 0.012051024 -0.0044952855
000170 f3 e5 65 bb 29 1a 31 3c 60 c9 62 ba 76 63 12 bb
       -0.0035079687 0.01080946 -0.0008651223 -0.0022337115
000180 90 79 79 bb ed 5c 25 bb 5c 06 0b 3c 41 20 97 bb
       -0.0038066842 -0.002523239 0.008485403 -0.0046119993
000190 c1 31 24 3c c3 ba 36 bb d5 52 0e bc da 07 fd ba
       0.010021628 -0.0027882315 -0.008686741 -0.0019304708
0001a0 0a 36 35 3c 6e 7b 0b 3c 3d e3 3a 3c 0d c8 f8 b8
       0.011060247 0.008513315 0.011406717 -0.00011862824
0001b0 45 70 2b 3c 36 96 76 bb 79 6f e9 bb 80 97 52 3c
       0.010463779 -0.0037626154 -0.0071238843 0.012853503
0001c0 92 94 ca bb 4c aa 3d 3c 79 4d c1 bb c8 2a c5 3b
       -0.0061822617 0.0115762465 -0.005899128 0.006017063
0001d0 08 14 17 3c 41 1b 87 3b 9a cc 26 3c 6d a6 0f 3c
       0.009221084 0.004123122 0.010180617 0.008767706
0001e0 16 e1 18 3c 61 78 38 bb 57 70 04 bc 1a e9 ec 3b
       0.009331008 -0.0028147923 -0.0080834245 0.0072299363
0001f0 08 0b 3c 3c 45 5f 3f 3c 97 85 04 bc 40 c2 7a bb
       0.011477239 0.011680429 -0.008088491 -0.0038262755

mlp.6.weight f4 [64, 128]
000000 d3 9b 43 be 18 2f 13 be ed b5 5c 3c 89 b3 14 3d
       -0.19102411 -0.14373434 0.013471109 0.03630403
000010 7d 6b 51 be 89 8a c8 bc b9 91 94 bd fa cb 52 bc
       -0.2045116 -0.024480121 -0.07254357 -0.012866015
000020 04 fe c5 bd 85 38 ad bd 38 8f fb 3d bd e2 65 bd
       -0.0966759 -0.08458046 0.12283176 -0.056124438
000030 f4 68 f5 bd 14 af 9a 3d 53 68 87 3e 01 5e 94 bd
       -0.11982909 0.07552925 0.2644678 -0.07244492
000040 6f a1 7c 3e 71 33 83 be 29 88 b6 3d 7a ee 74 be
       0.24670957 -0.25625184 0.08912689 -0.23919097
000050 ca f5 0c 3e c8 9c 37 3e b0 f5 2f be 76 0b b9 3b
       0.13765636 0.17930901 -0.17183566 0.005647118
000060 cd db 8f bd 6f 79 02 3e e5 57 0b be ec 20 cc bd
       -0.070243455 0.12741636 -0.13607748 -0.09967217
000070 70 e3 14 be bd d8 0f 3d 76 ad 59 bd 4e a4 fd bc
       -0.14539886 0.035118807 -0.05314394 -0.030962136
000080 52 27 33 bc 49 42 2b 3b 74 b8 6d ba 62 de da 3c
       -0.010934668 0.0026132038 -0.0009068318 0.026717369
000090 b9 88 81 be 99 8a 60 bd 55 13 d9 bb f7 25 93 bd
       -0.25299624 -0.054819677 -0.006624619 -0.071849756
0000a0 db a3 2e be 1e a0 56 be dd 94 3b bd ae 6f ba bd
       -0.17054693 -0.20959517 -0.045796264 -0.091033325
0000b0 bb 7b 48 bd a4 55 b2 3d 88 af 42 be 3c 20 4e bd
       -0.048946124 0.08707741 -0.19012272 -0.05032371
0000c0 f4 65 9b 3d b9 a2 36 be 80 a4 11 be a6 e3 7b 3d
       0.075878054 -0.17835511 -0.14222908 0.0614964
0000d0 5a 39 14 bd 47 91 a5 3d 34 4e 0f 3d c6 02 b8 bd
       -0.036187507 0.0808435 0.03498669 -0.08984904
0000e0 bf c2 b2 3d 35 11 21 3e e3 51 fc 3d 6e da 01 3e
       0.08728551 0.1572922 0.12320306 0.1268098
0000f0 02 56 cd bd b2 76 29 be d8 6c 31 3d 39 61 46 3d
       -0.1002617 -0.16549185 0.043316692 0.048432563
000100 ce c8 6b 3e a1 7d 11 bd 67 0b 62 3e b5 2b 22 3d
       0.2302582 -0.0355202 0.22074662 0.039592464
000110 41 a4 a3 3b ce 7b 54 bc 8f dd 15 3c 54 43 36 35
       0.004993946 -0.01296897 0.009147062 6.789826e-07
000120 de 1c 2a 3d 16 12 15 3e 1d f2 4e 3e 51 d9 d9 bc
       0.041531436 0.1455768 0.20209546 -0.026592882
000130 ba b8 1d 3e 38 4b 5e 3e 8b 42 3b 3e 1c 92 57 be
       0.15402499 0.21708381 0.18287103 -0.2105183
000140 e0 5d 9e bd 4d 6d 06 3e a7 52 92 3c 4c 8a 76 be
       -0.07732749 0.13127632 0.017861677 -0.24076194
000150 cb 12 0d 3e c7 65 4b be 1d fc 89 3d eb b8 b6 bc
       0.137767 -0.19863044 0.0673754 -0.022304973
000160 11 2d 80 bd c3 08 e6 3d 30 1b 32 3c e4 ac c6 3c
       -0.06258596 0.1123214 0.01087074 0.024252363
000170 a8 25 44 be a1 85 57 3d 2a 3f ee 3d e8 1d 4c 3d
       -0.1915499 0.052617673 0.11633141 0.04983321
000180 5c 0c 58 3e ce 4e c0 bc 15 4d 44 3c c8 b7 fb 3d
       0.21098465 -0.023475077 0.011981268 0.12290913
000190 55 fd 13 3e e3 4f 64 bd bb 59 61 3d c2 fb 0d bc
       0.14452107 -0.05574025 0.055017214 -0.008665981
0001a0 60 f5 10 be df be 17 3e 6c 1d 04 bd 0b 0f 9d 3d
       -0.14156103 0.14818905 -0.03225462 0.07668885
0001b0 12 1c 16 bd 7a 29 c3 3d 6e e8 bd 3d 93 0e 14 3e
       -0.036647864 0.095293954 0.09272848 0.14458685
0001c0 54 d7 64 bd e1 df 89 3d 00 ee d7 bc ed 96 12 be
       -0.055869415 0.06732155 -0.026358604 -0.14315386
0001d0 f4 9d 75 3d c0 e2 19 3e d0 e1 52 be 33 c8 37 bc
       0.05996509 0.15027905 -0.20593953 -0.011217165
0001e0 95 06 e3 3d 02 07 74 be 12 37 7b bc de e3 36 be
       0.1108524 -0.23830798 -0.015332954 -0.17860362
0001f0 b5 c7 30 bd c1 16 15 bd e5 57 91 bc d0 b5 5f be
       -0.043159205 -0.036398653 -0.017742107 -0.218467
000200 f9 82 f6 ba a3 32 1f be cd 83 07 be a9 1c 1c be
       -0.0018807343 -0.1554666 -0.13233872 -0.15245308
000210 f3 45 77 bd 9c cd 9d 3b 94 94 c3 3d aa ce 6c 3c
       -0.060369443 0.0048157703 0.095498234 0.014453569
000220 77 d0 d0 bd 02 9d 0a 3e 47 e4 00 3e 70 b6 49 3d
       -0.101960115 0.13536456 0.12587081 0.04924625
000230 d3 fb 39 3e 80 43 39 3c 97 07 5c 3b df 13 d9 3c
       0.1816247 0.011307597 0.003357386 0.026498733
000240 12 54 2a bd 03 fe 24 3e 4f 5c 5c 3e 26 5f 69 3c
       -0.041584082 0.16112523 0.21519588 0.014243877
000250 55 14 c5 3d 0b 23 c5 3d 66 d2 73 bd 51 26 18 3d
       0.09623019 0.096258245 -0.059526823 0.037145916
000260 83 b0 f8 bc a0 e4 d7 3d 00 df 97 bd 78 b2 da 3d
       -0.030357605 0.10541654 -0.07415581 0.106785715
000270 90 3e 08 be 5b 68 35 3e 24 ea 7c 3c cc ef 3c bd
       -0.13305116 0.1771559 0.015436683 -0.046127126
000280 f5 23 7c bd e3 ca 01 be d9 28 47 bd f9 2b be 3d
       -0.06155773 -0.12675051 -0.04862294 0.09285731
000290 63 2d 5e be 0f d9 17 3d c8 aa 60 be c8 28 09 3e
       -0.21697001 0.037072238 -0.21940148 0.13394463
0002a0 0c 2e a2 3d 23 78 e3 3d 65 f5 87 3d 4c 89 2b be
       0.07918939 0.11106899 0.06638602 -0.16751593
0002b0 50 15 ac bc 2e 1d 6d 3d e6 7f f5 3a ac 52 1c be
       -0.021006256 0.057889156 0.0018730133 -0.15265912
0002c0 08 15 8e 3d 31 ff f3 bc 2e 90 a1 3d 21 c2 94 3d
       0.06937605 -0.02978477 0.07888828 0.0726359
0002d0 8e 02 64 3e 8b 15 73 3d db 4d fc bd 27 00 cf bd
       0.222666 0.059346717 -0.12319537 -0.10107451
0002e0 50 3f f5 bd ca 43 8d bd a9 22 8b 3d e4 3f 38 3e
       -0.119749665 -0.06897695 0.0679372 0.17993122
0002f0 e0 5d 4d bd 0c 02 06 be 7a 4e 9e 3b f0 a8 4d bb
       -0.050138354 -0.13086718 0.0048311325 -0.0031381212
000300 b3 07 0e 3e f4 22 c5 bd d2 1e 12 3e 65 6e 47 be
       0.13870125 -0.096258074 0.1426957 -0.19475706
000310 ab cb 39 3e 4b 78 07 3d 0e 01 ba bd 42 61 8b bc
       0.181441 0.033073705 -0.090822324 -0.01701415
000320 d1 99 8b be 86 d2 ad bd cc 19 dd bd 44 85 61 3e
       -0.2726579 -0.0848742 -0.10795936 0.22023493
000330 2d 10 8b 3d c7 a2 9d 3e 22 d6 b0 bd 13 7b d2 3d
       0.06790195 0.30788252 -0.086345926 0.10277381
000340 7c eb 90 bd 57 17 aa 3b 46 e2 3c be e5 e2 96 3d
       -0.07076165 0.0051907706 -0.18445691 0.073674954
000350 3b 42 57 3d 80 72 57 bd 42 da 52 3e 92 70 27 3d
       0.052553397 -0.05259943 0.20591071 0.04087884
000360 b3 7a 07 3d 20 82 36 be 14 56 b0 3d 02 89 3d 3e
       0.033076 -0.17823076 0.08610168 0.18509296
000370 20 be 3c bd f6 40 80 3b 05 80 8a 3d 5a 94 d5 3d
       -0.046079755 0.003913994 0.06762699 0.104286864
000380 8e ef fd bd 18 9b 34 3e 8e b9 08 be 55 73 10 be
       -0.12399207 0.17637289 -0.13352033 -0.14106496
000390 75 1e 38 3e cf a2 63 3e 8c 83 94 bd a5 1d 61 3d
       0.17980368 0.22230075 -0.07251653 0.05495991
0003a0 6b 75 35 b9 67 59 db 3d e9 b3 46 3d a4 c1 24 3e
       -0.00017305247 0.107104115 0.04851142 0.16089493
0003b0 cf 5d 81 be d5 7d ad 3d cf 58 c2 bd 6a 66 b7 bd
       -0.25266883 0.08471266 -0.09489595 -0.08955081
0003c0 ac 5a 8a 3d a9 64 16 3e 30 37 b2 3d 91 9e d4 bd
       0.067555755 0.14686836 0.087019324 -0.10381807
0003d0 4f c8 e7 bd 0d 97 25 3e db c3 4e bd af 50 b4 bd
       -0.11317503 0.16170903 -0.05047975 -0.08804452
0003e0 e3 89 57 3e fc 96 c1 3d be 46 4c 3c 43 25 2d 3d
       0.21048693 0.09452626 0.012468038 0.042271864
0003f0 de d2 a4 3c 99 21 0d be 11 84 3f 3d f7 fd 19 3d
       0.02012008 -0.13782348 0.046756808 0.037595715

mlp.6.bias f4 [64]
000000 26 3f 85 bb 72 4b 0c 3c f6 92 96 3a 83 ea 08 bb
       -0.004066366 0.008562909 0.001148789 -0.0020891733
000010 1b 6b c1 bb 52 b5 25 3c 4f 39 a4 bb dc af 1f 3c
       -0.0059026605 0.010114031 -0.0050117145 0.009746518
000020 89 71 00 bc 12 26 f3 bb 22 68 9b 3b ce 36 37 bb
       -0.007839569 -0.00742031 0.004742638 -0.002795625
000030 8a db 70 3b ff 3a 29 bb f3 27 6c bb fc fe 09 3c
       0.003675195 -0.0025822518 -0.0036034554 0.008422609
000040 62 db 1a 3c a0 a2 0b ba 44 d7 01 bc cc 2b af bb
       0.009451719 -0.0005326662 -0.0079248585 -0.005345797
000050 61 5b 06 3c 7a c8 19 3c 6f f3 12 3c ee 1a 59 3b
       0.008200497 0.009386176 0.008969172 0.0033127624
000060 b6 af 17 bb ae 05 fe bb fb e0 cd 3b e2 12 0b 3c
       -0.0023145503 -0.007752142 0.0062829233 0.008488389
000070 44 f2 0d 3c 16 9d 18 3c fd b5 73 3a ce 67 4a bb
       0.008663718 0.009314796 0.0009296833 -0.0030884626
000080 d3 13 58 3a 64 3a 89 bb a4 66 e1 bb 7b 3d 04 3c
       0.00082427 -0.004187869 -0.006878691 0.008071299
000090 83 33 0c 3c 77 bd 83 bb de 02 05 bc 12 f1 24 3c
       0.008557203 -0.0040203887 -0.008118359 0.010067241
0000a0 ee 47 a1 3b 6b 1f 59 bb a5 ff 03 3c c9 80 f1 bb
       0.0049219048 -0.0033130299 0.008056556 -0.0073700887
0000b0 08 1e 5b 3c 20 1b a4 3b ae 77 0b 3c cc 12 05 3c
       0.013373859 0.0050081164 0.008512421 0.008122157
0000c0 bc 0e c5 ba 43 29 30 bb ad 35 18 3c dd 57 1a 3c
       -0.0015034298 -0.0026880063 0.009290141 0.009420362
0000d0 1e a0 97 3b 13 4b 10 3c c8 65 20 3c c3 d3 e3 bb
       0.0046272418 0.008806962 0.009789892 -0.006952734
0000e0 b5 fb 35 3c 52 ee 19 bb 65 c1 18 bb 7b 71 14 bb
       0.011107375 -0.0023487997 -0.0023308631 -0.0022650647
0000f0 17 f3 3f 3c b1 27 a3 bb fa 0f 25 bb d5 6b 0f 3c
       0.011715672 -0.004979097 -0.0025186525 0.0087537365

mlp.8.weight f4 [1, 64]
000000 d8 51 26 be 50 b6 bd 3d 11 e0 94 3e c7 7c f9 39
       -0.16242158 0.09263289 0.290772 0.00047585947
000010 35 5b 85 bd 59 33 f6 3d 0a 59 33 be c5 43 9d 3e
       -0.06511537 0.120215125 -0.17514434 0.30715767
000020 7d fe b6 bd fc 1c 1d be 17 2e b2 3e a2 55 bc bd
       -0.089352585 -0.15343088 0.3480079 -0.09196021
000030 93 81 09 3e 09 5f 40 be e8 97 11 be 34 0b ef 3c
       0.13428335 -0.18786253 -0.14218104 0.029180147
000040 6b 62 fe 3d e9 f0 ae be bd 40 8f bd 22 56 23 be
       0.124211155 -0.34168175 -0.0699477 -0.15950826
000050 6e 35 90 3e fa 55 0c 3d 2c a6 98 3c ff f0 27 3c
       0.28165764 0.03426168 0.018633924 0.010250329
000060 5d 55 61 be 53 ad e1 bd 7b 22 be 3d a3 8c 78 3e
       -0.2200522 -0.11019387 0.092839204 0.24272399
000070 88 48 77 3e fb 98 19 3e 77 e2 d9 3d 1c 02 b3 be
       0.24148762 0.14999764 0.10638898 -0.34962547
000080 74 42 34 3e 5c 9f 5e be 26 4b 5f be b2 87 70 3e
       0.17603475 -0.21740478 -0.2180601 0.23489264
000090 4e 42 51 3e 2b 88 ec be e6 97 aa bd a8 62 61 3e
       0.2043545 -0.46197638 -0.083297536 0.2201029
0000a0 ae a2 53 3d cb d7 e6 be 96 35 80 3e c7 94 5a be
       0.051668815 -0.45086512 0.25040883 -0.21345817
0000b0 0d 47 32 3d 66 14 8d 3e a5 94 e6 3d 77 ec 49 3e
       0.04352479 0.27554625 0.112588204 0.1971911
0000c0 7e c9 c4 be e6 b7 64 be 6f 97 ff 3e a4 db 29 3e
       -0.38434976 -0.22335777 0.49920222 0.16587692
0000d0 6a 33 ca 3c 68 c6 33 3d 31 32 58 3c 19 e5 3e be
       0.02468272 0.043890387 0.01319556 -0.18642081
0000e0 a2 52 12 3e 2a 41 a0 bd e3 4b 9e be 3b 7d ce bd
       0.14289334 -0.07824929 -0.30917272 -0.100824796
0000f0 e7 e5 1b 3d bf 7b 2a bc 4f dc b1 bd 7b 50 dc 3d
       0.03806105 -0.01040548 -0.08684599 0.10757538
